api/model_files/youbike_lstm_multistation.pth (torch, 80522 bytes, 6 tensors)

station_embedding.weight f4 [13, 5]
000000 04 b6 bc bf b4 1f 1a 3e e4 54 fa 3e 88 75 10 3f
       -1.4743047 0.15051156 0.4889289 0.5642934
000010 01 dc 16 be 6f a4 cc 3f a1 52 e1 bf 42 44 12 3e
       -0.14732362 1.5987681 -1.7603341 0.14283851
000020 f1 3b 2d be 1d 5a 81 bf 71 80 0d be de 2d 2d 3f
       -0.16917397 -1.0105625 -0.13818528 0.6764811
000030 5d 73 c0 3e 7f 2b 8f 3c 4b 33 94 bf 71 78 82 3d
       0.37588015 0.017476795 -1.1578153 0.063706286
000040 6a 56 6d bf 5a f3 6d bc 75 32 75 3f df e6 15 3f
       -0.9270998 -0.014523352 0.95780116 0.58555406
000050 9d cf 2a bf 2e 4c 81 3f da 98 ad 3f 7a 42 58 bc
       -0.6672304 1.0101373 1.3562272 -0.013199443
000060 32 16 22 40 a4 dd 1a 3e 2c eb c6 3f 7b 51 c3 3f
       2.5326047 0.15123612 1.5540519 1.5259241
000070 ff e3 6e 3f 94 9f 5d 3f 7e cd 10 bf 85 1f 86 3f
       0.93316644 0.8657162 -0.56563556 1.0478369
000080 15 4d 61 bf 3b d1 ac 3e d0 1a 29 bf d2 ca 1a 3e
       -0.8800824 0.3375338 -0.6605654 0.15116432
000090 62 02 c4 bf 83 d0 85 be 03 b5 99 bf df 6f b6 3f
       -1.5313227 -0.26135644 -1.2008365 1.425289
0000a0 0b 18 f3 be a0 70 c7 3f 2d ab 39 bf 94 eb aa 3e
       -0.4747928 1.5581245 -0.7252682 0.33382857
0000b0 93 09 0a 3f 5d 9b 05 c0 84 81 b8 3f 3e f0 5b 3f
       0.5392086 -2.0876076 1.4414525 0.85913455
0000c0 ae e3 9b 3e 86 e6 5a 3e 0f 87 e8 3e 5e 1f a9 3c
       0.30447143 0.21377 0.45415542 0.02064484
0000d0 47 6e 35 3f 92 1d f0 be 86 0a e3 bf 81 08 46 3f
       0.70871395 -0.4689756 -1.7737586 0.77356726
0000e0 27 3d 9d be c3 ef f4 3f 8c 36 4e 3f c0 e8 46 3f
       -0.30710718 1.913567 0.8055198 0.776989
0000f0 48 69 13 40 7e cf ef be d0 0a 31 bf 9b 58 ef 3e
       2.3033009 -0.4683799 -0.69157124 0.46747288
000100 9b 19 08 3f
       0.5316407

lstm.weight_ih_l0 f4 [256, 9]
000000 4f 65 41 3e 0d 3f 15 3d 7b da 94 bd b2 95 07 3d
       0.18886302 0.036437083 -0.07268234 0.033101745
000010 a0 ca 09 3e db f8 e8 3b eb b2 21 be c2 dc 8f bd
       0.13456202 0.007109744 -0.15790908 -0.07024528
000020 36 bd 8e bc a9 f2 7f 3c 33 32 de bd 8c eb 05 bd
       -0.017424207 0.0156218195 -0.108494185 -0.032695338
000030 68 0f d9 bc 01 38 82 bd 3f 80 11 3d e4 ec 23 3d
       -0.026496604 -0.06358338 0.035522696 0.04002084
000040 c8 11 95 3d bc 65 15 bb 87 0d c6 bc c4 62 37 bd
       0.07278782 -0.0022796234 -0.024176372 -0.044771925
000050 ab f0 74 bd 56 bc 18 3d 81 9c 1f 3d 4c 91 bc bc
       -0.05979983 0.037288986 0.038967613 -0.023018502
000060 e5 d1 b6 bd 5b 53 ff 3d 7c f3 bb bd 11 3d 2c 3d
       -0.08926753 0.12467071 -0.091773 0.042050425
000070 6a 5d 98 3b 5c bc 26 3d 2f 78 df bd d5 92 a5 3c
       0.0046498077 0.040706977 -0.10911595 0.020211617
000080 14 82 7b bc 65 e3 d7 3d 37 22 76 bd 2c 28 1d 3e
       -0.015350837 0.10541419 -0.060091224 0.15347356
000090 91 3d 33 3e 03 4f 6e bd ab 2c 1d 3d 42 d4 85 3d
       0.17503954 -0.05818082 0.038372677 0.065346256
0000a0 7a c5 29 3e e6 f3 fc bc f9 d5 74 3d ef 36 3b 3d
       0.16579238 -0.030878019 0.059774373 0.045706686
0000b0 98 b9 83 bd da ce 46 3e b3 9d 18 3e ad b2 2e bd
       -0.064318836 0.19414845 0.14903907 -0.042650867
0000c0 71 77 82 bc 62 c5 b4 3d f9 7a ea bc d2 64 e9 3d
       -0.015926095 0.0882671 -0.028623091 0.11396183
0000d0 fd 53 37 3d 87 eb 21 be d5 71 8c 3d 20 6c 30 bc
       0.04475783 -0.15812503 0.06857649 -0.0107679665
0000e0 63 e0 3a bd fb a1 b5 3d 8f 5a c2 3d 07 cb 89 bc
       -0.045624148 0.08868786 0.09489929 -0.016820444
0000f0 d4 25 89 bd ec 87 1d 3e ea 5f da 3d cf 6f 88 3d
       -0.06696668 0.15383881 0.106628254 0.06661951
000100 bd 1c 79 3c 60 da cc 3c 9c c6 9e bd 59 a4 98 bd
       0.015204606 0.025006473 -0.077527255 -0.07453222
000110 e2 53 2c bd bf d3 0b bd 50 0f 6f bd 3d 08 b5 3d
       -0.042072184 -0.034137484 -0.058364213 0.08839462
000120 c0 69 28 3e 2c db 9d bd 3c e0 6f 3d 5c 12 6b bc
       0.1644659 -0.07707819 0.058563456 -0.014347639
000130 46 ae 80 3d 1f 36 1e 3d dc e6 9b 3d 3c a8 a4 bd
       0.0628324 0.038625833 0.07612392 -0.08039901
000140 3d 21 ad bd da ad 60 3d 64 24 c1 3d 98 14 4a bd
       -0.08453605 0.054853298 0.09430769 -0.049336046
000150 4b a1 d0 bd d6 e3 cf 3d e7 39 86 3c 2e 9d fb 3d
       -0.10187014 0.10150878 0.016385032 0.12285839
000160 9c 61 15 3e a4 3e 5f bd 47 5c 6a 3c de 06 42 3c
       0.14588016 -0.054503098 0.014304227 0.011842458
000170 0d ad 9e 3d c6 33 ea 3d 8b af fe bb 4e d9 87 bc
       0.077478506 0.11435656 -0.007772391 -0.016583111
000180 19 a7 a0 bb dd af 5b bd 06 2e 99 bc d7 17 46 3e
       -0.004902732 -0.053634513 -0.018698703 0.19345032
000190 08 8d 0d 3c 1b 3b 80 bc 10 ca 58 b9 e1 93 18 be
       0.0086395815 -0.015653184 -0.0002067464 -0.14900161
0001a0 8a 88 29 bd a5 2d 11 3e ab 38 87 3d d2 24 57 bb
       -0.04138998 0.14177568 0.066026054 -0.0032828343
0001b0 03 55 39 3b 2f 2c ca 3d 9d 46 51 bd 12 4f 0b bd
       0.002827943 0.098717086 -0.051092733 -0.034010954
0001c0 24 27 98 bd 5d 34 d1 bd be dc 8f bd 3f 8b 46 bc
       -0.074293405 -0.10215066 -0.07024525 -0.01211816
0001d0 3a 7f e8 3c bd d5 01 be c8 0d df bc 7b 71 33 bd
       0.028380979 -0.12679191 -0.027228251 -0.043809395
0001e0 bc 1a e9 bc 61 64 c7 bd d3 77 96 bc 7a 05 10 bd
       -0.02845513 -0.09735943 -0.018367684 -0.035161473
0001f0 f6 13 4a 3d c2 63 23 bc d5 45 7d 3d 89 38 59 3d
       0.049335442 -0.009972515 0.061834175 0.05303243
000200 e2 31 f2 bc 81 5b 88 bc 04 b7 fc bd fe 32 02 3c
       -0.029564802 -0.016645195 -0.12339595 0.007946728
000210 03 c4 2e be c2 3f 97 3c 71 fb 27 3d 94 75 70 3d
       -0.1706696 0.01846302 0.041011278 0.05870588
000220 0f 8d 95 bb b5 d8 fc bd 0c c8 e8 bb fe c8 b2 3d
       -0.0045639346 -0.12346021 -0.0071039256 0.087297425
000230 fa ca c9 3d 15 c6 10 3c c9 74 4c 3c 7b 0b 57 3d
       0.09853168 0.008836289 0.012479016 0.052501183
000240 4a 81 1a bd 22 a6 4d bc 55 d1 06 bd 1b c4 9f bd
       -0.037720956 -0.012551816 -0.03291448 -0.07801076
000250 45 c8 80 bb 3b 07 f4 bd 89 df 11 3d 71 a1 8f 3d
       -0.003930124 -0.119154416 0.03561357 0.070132144
000260 e4 51 93 3d 57 7c 2a 3e 7e f1 e5 bd b8 11 fd 3d
       0.07193354 0.16648994 -0.112277016 0.12356895
000270 74 ae a5 bb 8e 28 d3 3d 4d 74 83 3d a0 b9 21 bd
       -0.005056197 0.103104696 0.06418667 -0.039483666
000280 83 98 a7 bc 0c fb a3 bd e8 fb 19 3e cb 63 ee 3d
       -0.020458465 -0.08006868 0.15037501 0.11640128
000290 97 9d 16 3e 90 d4 f8 3d d5 95 0c 3d 84 ad 4c 3e
       0.14708553 0.12149918 0.03432258 0.19988066
0002a0 89 b9 da bd b1 2d d4 bd b2 83 b2 3c 56 09 80 3d
       -0.10679919 -0.103602774 0.021791313 0.06251781
0002b0 c1 01 0d 3e ae d3 2b 3d 76 6e d4 bc e6 ba 16 be
       0.137702 0.04194992 -0.025931578 -0.14719734
0002c0 c7 71 97 bd 51 d5 7e bb fa 7a 30 3e 47 26 45 3d
       -0.07394748 -0.003888447 0.17234412 0.048132207
0002d0 9c 17 4d 3e ca e2 c6 3d bd 93 21 3d 09 94 c1 bd
       0.20028538 0.09711225 0.039447535 -0.094520636
0002e0 b0 aa 87 bd ac 6d fe 3d cf a5 e5 3d 9a 26 97 bd
       -0.06624353 0.12423262 0.11213266 -0.073804095
0002f0 ba 74 39 3d 7e 82 9b bc 3b 8d 0b 3d 77 ce 20 3d
       0.045277335 -0.018983122 0.034070235 0.0392594
000300 97 e3 0d be d3 b0 32 be fa c2 ea 3d 53 a4 e5 bc
       -0.1385635 -0.17450266 0.1146297 -0.028032457
000310 d8 92 00 3e 09 8a 73 3b 7e aa 44 3e 42 a0 b1 3d
       0.12556016 0.0037161133 0.19205663 0.08673145
000320 a0 11 4a bd 16 ed c5 3d f2 13 bb 3c 30 91 03 3e
       -0.049333215 0.09664361 0.02283666 0.12848353
000330 19 94 ed bd 39 3f 21 bd f3 ad e7 3b 0f 36 f2 3d
       -0.11600513 -0.039366934 0.007070297 0.11826717
000340 e8 43 0e 3e 96 46 dc 3d 31 61 c5 3d 41 27 98 3d
       0.13893092 0.10755651 0.096376784 0.07429362
000350 e0 de 37 bd f3 1e 36 3d 06 c0 19 bd db 0e af bd
       -0.044890285 0.04446311 -0.037536643 -0.08547755
000360 29 70 c8 bc 53 ff f1 bc 2b 95 93 bd 0d 52 cb bd
       -0.024467545 -0.029540693 -0.07206186 -0.09927759
000370 13 29 0a bd 51 6b 24 3c 54 bc 37 3c 17 c4 5e bd
       -0.033730578 0.010035352 0.0112143345 -0.054386225
000380 a0 3e 9c bd 7a 7b e9 bd 4e 83 9e 3c a2 0b cb 3b
       -0.07629132 -0.114005044 0.01934972 0.006196455
000390 d3 54 93 3d ad 88 05 bd 96 38 e9 bc d6 7b ae 3d
       0.07193913 -0.032601047 -0.028469365 0.085197136
0003a0 f0 a2 91 3c 41 76 da bd 81 36 12 3c cc 94 87 bc
       0.01777789 -0.106670864 0.008924128 -0.016550444
0003b0 78 67 2d bd ab 35 b7 3d 97 24 cd bc ba 0e 86 3d
       -0.042335004 0.08945783 -0.025041861 0.065457776
0003c0 35 9d 87 3d 90 8c 8d 3d f1 d5 fd bd 0b c6 e1 bc
       0.06621782 0.06911576 -0.12394322 -0.027560255
0003d0 92 22 14 3e 01 97 92 bd 85 56 ed 3c 5f cc b9 3d
       0.14466313 -0.07157708 0.02897192 0.09072184
0003e0 47 f1 5a 3d 65 9c 9f bd 88 eb 9b 3c 3f 4f 84 bd
       0.053452756 -0.07793502 0.019033208 -0.064604275
0003f0 d1 ef f2 3d 57 bb ad 3d 19 26 c2 bc 5c be 65 3c
       0.118621476 0.08482998 -0.023699807 0.014022436

lstm.weight_hh_l0 f4 [256, 64]
000000 8a a3 de bc aa 3d ca 3c 56 fd 17 be 7e 09 a0 bd
       -0.02717759 0.024687607 -0.14842734 -0.078143105
000010 8d 23 e7 3c c1 5a 1e 3e 2f d6 20 bd 77 70 1b be
       0.028215194 0.15464307 -0.03926676 -0.1517962
000020 1a d8 ad 3d 60 1a 4d be 33 98 25 3e 0e 96 56 3e
       0.08488484 -0.20029593 0.1617134 0.20955679
000030 ae 45 05 3d 64 27 13 be 44 e5 9a bc b8 c8 48 bd
       0.032537155 -0.14370495 -0.01890815 -0.049019545
000040 ce b6 5b bd 87 50 80 bd e2 d3 d0 bc d3 9d 4a 3e
       -0.053641133 -0.06265359 -0.025491659 0.19786768
000050 c0 f3 ee 3d f3 ed c5 3d 47 06 d4 bb 18 a5 98 bb
       0.116675854 0.09664526 -0.006470475 -0.0046583526
000060 17 f8 8c 3d eb db 39 3d 7f f1 1d be 73 c3 e7 3d
       0.06883257 0.045375746 -0.15424155 0.11316576
000070 6e 94 d1 bd f7 34 b0 ba 97 80 f1 bc 3b c8 ce bc
       -0.10233389 -0.0013443519 -0.029480262 -0.025241962
000080 a9 6d 1a 3e 65 ec 19 3d ab f9 0f bd 21 15 99 bd
       0.15080895 0.03757896 -0.03515021 -0.07474733
000090 7d 9a d2 bd 45 7b b7 bd c6 49 47 3d 4b d8 8e bc
       -0.102833726 -0.08959059 0.04865434 -0.01743712
0000a0 b2 87 97 bd 60 ff 27 bd 7e 32 3c 3d 64 bc b7 3d
       -0.07398929 -0.04101503 0.04594659 0.089714795
0000b0 3a 2b 37 3d 83 a2 03 3e 0e 24 a2 bc 2f c7 24 3b
       0.04471896 0.12854962 -0.019792583 0.0025143137
0000c0 36 44 8e 3d cc f4 8a bd 76 d8 b3 bd 4b 88 8a 3d
       0.06946604 -0.067849725 -0.08781521 0.06764277
0000d0 77 44 af 3c fa 7c 89 3d 5c 4b b1 bd fc 35 7f 3d
       0.021394951 0.067132905 -0.08656952 0.062307343
0000e0 9e 09 0e bc 27 67 98 bd 35 62 a9 bd 2c 3d 09 bd
       -0.008669285 -0.0744155 -0.08270685 -0.033505604
0000f0 5d 66 d7 bd 43 92 29 3e 05 2c c5 3d 34 f0 a7 bc
       -0.10517571 0.165597 0.09627537 -0.02050028
000100 00 cf 9e 3d 66 cf 0b 3e 70 d4 9f 3d bf 8a 8b bc
       0.07754326 0.13653335 0.07804191 -0.017033933
000110 bb 49 f3 3c d2 cd fe bb fe 0d b3 3c 4c a5 07 bd
       0.029698243 -0.0077760005 0.021857258 -0.033116624
000120 39 80 1a be 74 4a b9 bd 0b 39 09 3d 89 0c e5 3c
       -0.15087976 -0.09047404 0.033501666 0.027960079
000130 92 a2 57 3d 10 a5 30 3d 24 c2 57 3c e2 5e 69 ba
       0.052645274 0.043126166 0.013168845 -0.0008902383
000140 0a fb da bd 2b 5c 73 3d 72 47 f9 3d db 13 fe bb
       -0.10692413 0.05941407 0.1217183 -0.007753832
000150 ce ad 0c bd b1 10 df bc 88 6b e8 bd c9 6c 25 3e
       -0.03434544 -0.027229639 -0.11348635 0.1615478
000160 70 6c e8 bd 95 25 f9 bd ef ec 22 bd 13 bb 1f bd
       -0.11348808 -0.12165371 -0.03977674 -0.038996767
000170 ea 22 03 3e 12 55 b8 3b 2b 66 21 bd 75 c7 13 be
       0.12806287 0.0056253755 -0.039404076 -0.14431556
000180 02 e2 10 3d fb e8 ae 3b 7a c5 00 bc c0 8d c0 3d
       0.035371788 0.005337832 -0.007859582 0.09402037
000190 79 38 02 bd f0 82 9f 3d 60 11 b3 bd 2e d1 2f bc
       -0.031792138 0.07788646 -0.087435484 -0.010731025
0001a0 af ac 80 3d 52 dc bf 3d a6 8f da bd 8f af 1a 3d
       0.06282937 0.09368195 -0.1067193 0.037765082
0001b0 8c 59 ba bd 1b 28 6f bd 76 ff f3 3d 4d 72 d7 3d
       -0.09099111 -0.058387857 0.1191396 0.10519848
0001c0 32 16 3a be 85 19 c0 bd 8d 7d ae bc c7 c6 ba bd
       -0.1817253 -0.093798675 -0.021300102 -0.09119945
0001d0 a8 11 b7 3d f3 f8 e1 3d c8 2f dc bd 7b 39 6c 3d
       0.089389145 0.110338114 -0.10751301 0.057672005
0001e0 84 c1 12 be 1b 60 b3 3d 4d 54 18 bd 28 25 0d be
       -0.14331633 0.08758565 -0.03718977 -0.13783705
0001f0 f1 fb 37 bc 79 31 b1 bd ab 37 7b bd 46 bb db bc
       -0.011229501 -0.08652014 -0.061332386 -0.026822697
000200 e6 ee 0a be 77 44 b7 3c 92 03 99 3d 5f 21 82 bd
       -0.13567695 0.022371514 0.07471384 -0.06354021
000210 c6 3b 16 be 79 8e cf 3d 8e 9d 5d bd d1 d8 23 be
       -0.1467124 0.101345964 -0.054105334 -0.16000678
000220 3b fe fb bb 6b a1 53 bd 3c c3 ae 39 4d 01 92 bc
       -0.0076902187 -0.051667612 0.00033333327 -0.017822886
000230 29 c0 bf bd 6f 91 10 bc 7d f9 ec 3d ea 2d ef ba
       -0.093628235 -0.008823737 0.115710236 -0.0018247936
000240 47 d9 79 bd d8 68 61 3d e1 d6 15 3c 0e 5f b1 3c
       -0.060998227 0.055031627 0.009145469 0.02165177
000250 69 7a 7b 3d 4a 77 bc bd 73 92 39 bd 1a ea 70 bc
       0.061396036 -0.0920244 -0.04530568 -0.014704252
000260 57 2e 3e 3d 9e 21 f7 3c 60 e3 c3 bd 5f 3a 1e 3e
       0.046430912 0.030167397 -0.09564853 0.15451954
000270 07 4c bb 3b be b9 e9 bd 6e 1c f6 bd 18 e2 8e 3d
       0.0057158503 -0.11412381 -0.12017141 0.06976718
000280 70 c1 d5 3d 8a 82 c9 3d 53 2a 27 be 2e 50 07 be
       0.10437286 0.098393515 -0.16324739 -0.1321418
000290 4a 35 b5 bc ae a7 c3 bc 61 5a 4c 3d 98 dd d3 bc
       -0.022120137 -0.023883667 0.04989088 -0.0258625
0002a0 a6 e0 42 3d 97 8a ce 3d 7f 65 90 3c 1f 0c 08 3c
       0.047577523 0.10085028 0.017626522 0.008303671
0002b0 28 0e 00 bd 60 96 4d bc 50 40 ee 3c 0d 81 e8 bd
       -0.0312635 -0.012548059 0.029083401 -0.113527395
0002c0 fc 95 52 bd ae 30 ff 3c 97 e1 e6 3d 58 79 ad 3d
       -0.051412567 0.031151142 0.112734966 0.0847041
0002d0 54 94 13 be 41 07 ad bd ad 8d 0f bd b1 a0 a5 bd
       -0.14412051 -0.08448649 -0.035047222 -0.0808729
0002e0 4d 2a b1 3d 16 78 80 bd bc fe e5 bd 31 4e 9e 3d
       0.08650646 -0.062729046 -0.11230227 0.077297576
0002f0 51 87 e7 3d cf 05 e0 3d 39 7e 2c 3d a1 83 17 3d
       0.113051064 0.10938608 0.042112563 0.036990765
000300 5e 61 f2 3d 69 82 ba 3d 02 2d 14 3e b9 f2 83 3d
       0.118349776 0.09106905 0.14470294 0.0644278
000310 8a 5c 10 bd c8 7e e7 bc c0 2b 49 bd ab ae a7 bc
       -0.035244502 -0.028258696 -0.04911399 -0.02046903
000320 dc 69 74 3d 66 f3 fd bd 76 55 f4 3d c6 35 d4 bc
       0.059671268 -0.1239994 0.11930363 -0.025904547
000330 7c 28 ce bd 9b d2 44 3d ff 36 81 3d 6a cc b1 3d
       -0.100663155 0.04805241 0.06309318 0.08681567
000340 37 db b9 bc 79 b3 c8 3d 6b 53 95 bc b7 95 06 bc
       -0.022687538 0.09799857 -0.018228253 -0.008214406
000350 3d da 07 bd a6 fb b5 bc 67 70 52 bd 37 3a 9a 3d
       -0.033167113 -0.022214722 -0.051376726 0.07530635
000360 d9 35 5e bd 31 80 f4 3c 23 4c 40 bc 32 1e 40 3d
       -0.054250572 0.029846283 -0.011736902 0.046903796
000370 b4 13 c4 3c 20 aa 6f bd 4f ff d9 3c dc b9 d2 bc
       0.023935176 -0.058511853 0.026610998 -0.02572339
000380 10 0f eb 3b 6f 24 9b 3c cd 46 02 be ce 56 0a be
       0.0071734264 0.018938271 -0.12722321 -0.13509676
000390 50 b1 06 be 6f 9d e5 bd 2c f4 fe bc f1 f4 80 3d
       -0.13153577 -0.11211669 -0.03112229 0.06296719
0003a0 13 16 d1 bc 78 fa a0 bd 61 15 fb bd 0d 3c 43 bd
       -0.025523221 -0.07860273 -0.12259937 -0.04766469
0003b0 4e 4e de 3d ab 4a 6c bd 1a b2 d8 3c 29 29 07 3c
       0.10854779 -0.057688396 0.026452113 0.008249559
0003c0 e6 66 2f 3e 31 13 3b bd 32 aa 78 bd 92 91 ac 3d
       0.17129096 -0.0456726 -0.060709186 0.08426203
0003d0 85 4c c4 bd 1a d7 87 3b 2e e5 0f be d1 16 c5 3c
       -0.095849074 0.004145515 -0.14052269 0.024058731
0003e0 50 d4 90 bc 53 50 07 be 52 1b a2 bc 5c 55 22 3e
       -0.017679363 -0.13214235 -0.019788418 0.15852875
0003f0 be 8c de bd 16 3c 3f 3d b1 7a 33 3e 75 48 0c 3d
       -0.10866688 0.04668816 0.17527272 0.034248788

lstm.bias_ih_l0 f4 [256]
000000 b8 15 53 bd ca ce b8 bc 81 c4 3e 3d e4 21 3a bd
       -0.051534384 -0.022559542 0.04657412 -0.045442477
000010 01 38 d9 3c 10 de 51 3d 6e 87 72 bc ca a1 70 3d
       0.026515963 0.051237166 -0.014802797 0.058748044
000020 83 30 bc bd 3c c3 03 3e 99 a3 c6 bd dc 0f d8 3d
       -0.091889404 0.12867445 -0.096991725 0.105499
000030 0c 74 df bc 32 5c 4f 3d bf b5 0a 3e 97 df f7 3d
       -0.027277015 0.050625034 0.13545893 0.12103193
000040 02 3e a8 bd b4 94 e2 3d 58 25 26 3e 28 b7 9e 3d
       -0.08214952 0.11063519 0.16225183 0.07749778
000050 04 66 09 3d 51 4d 4a bd 1b 82 bc bd 29 f3 c6 3c
       0.033544555 -0.04939014 -0.09204503 0.02428587
000060 37 f7 3c bd dd 2f 81 3d 29 d7 ad 3d b6 b6 17 bd
       -0.0461342 0.06307957 0.08488304 -0.03703948
000070 94 fb 91 bd c6 2a e4 3d 65 33 3e 3e a9 d3 08 bd
       -0.07128063 0.11140971 0.18574293 -0.03340498
000080 39 93 15 3e b0 08 5f bd ea 90 29 3e a6 40 d1 3d
       0.14606942 -0.054451644 0.16559187 0.10217409
000090 0b c4 5c 3d 8d 1e fb 3d 05 ed a3 bd 9e e3 64 3d
       0.0538979 0.122616865 -0.08004192 0.055881135
0000a0 76 61 8e 3d 30 33 54 bd 69 15 db bc c9 7b b4 3b
       0.06952183 -0.05180663 -0.026743608 0.0055079204
0000b0 6d 4f 2a bd bb 17 66 bd 1d c9 0b 3d 86 0d d5 bc
       -0.041579653 -0.056174975 0.034127343 -0.026007425
0000c0 01 12 e1 3d 74 fc 10 be fc 02 db bc 61 10 06 3e
       0.10989762 -0.14158803 -0.026734821 0.13092186
0000d0 27 57 fa 3d 76 55 cf 3d d6 9d 74 3d 88 25 e6 3d
       0.12223654 0.10123722 0.059720837 0.11237627
0000e0 69 bc 1c bc e7 5d 10 3d f4 be 22 be cd ea 0b 3d
       -0.009566405 0.035245802 -0.15893155 0.03415947
0000f0 3f 33 cf 3d 8a c5 c9 3d a3 aa dc 3c 78 30 ef 3c
       0.10117196 0.09852131 0.026936835 0.029197916
000100 a1 c5 b5 3d b4 db 4e 3d d2 9e 73 3d 53 54 8c 3c
       0.08875585 0.050502494 0.059477635 0.017130053
000110 cc c9 1f 3e 7f b6 21 3e 81 1a 85 bd 3c be 9e bd
       0.15604323 0.15792273 -0.06499196 -0.07751128
000120 29 9c 73 3d b9 25 6c bd bc d6 89 bc 49 f6 79 3d
       0.059475098 -0.057653163 -0.016826026 0.06102589
000130 2e 61 c6 bc 64 80 fd 3c cb 4b b0 bd cb f6 cb bc
       -0.02421626 0.03094501 -0.08608206 -0.024897953
000140 ea 6c 1d 3d 3f 86 16 bd 31 52 51 3d dc ad 27 3d
       0.038433947 -0.03674912 0.051103774 0.04093729
000150 6f a1 bb bd f3 d9 77 3d 66 d9 b5 bd 8f b0 a3 3a
       -0.091616504 0.060510587 -0.08879356 0.0012488532
000160 82 aa 02 be 9e 07 3e 3d 02 70 44 bc 8d 92 2b bc
       -0.12760356 0.046393983 -0.011989595 -0.010471952
000170 fb 09 58 bd 19 75 70 bb d2 c7 c4 3d 6a 82 1f bd
       -0.052743893 -0.003669089 0.09608425 -0.038942732
000180 ef 72 9a 3a 52 f9 e0 bc 42 ad 18 3e 2a c5 07 3d
       0.001178352 -0.027462635 0.14909843 0.033147015
000190 94 be a3 bd 38 19 4e 3e 50 75 ac bd 4c 89 60 bd
       -0.07995334 0.20126808 -0.08420813 -0.054818437
0001a0 89 ad cc bc ca a2 af 3d 93 a0 58 3c dc 2a 1f 3e
       -0.024985092 0.085759714 0.013221878 0.15543693
0001b0 b8 f3 2e bc cd 1c ce bd c6 86 8e bd 3d 9e 49 bd
       -0.010678224 -0.10064087 -0.069593 -0.049223173
0001c0 d2 ca 15 bd 8a 52 65 bc cf 0b 46 3d 57 23 37 bd
       -0.036570378 -0.01399673 0.048351105 -0.044711437
0001d0 5a 5b 1d bd d3 73 c8 3d fe 93 b1 bc 05 8d e9 3c
       -0.038417198 0.09787717 -0.021677013 0.028509626
0001e0 d0 6d d8 3d 11 2d 4f 3e e0 a7 02 be b0 a3 f8 bd
       0.1056782 0.20232035 -0.12759352 -0.12140596
0001f0 e2 6c cc bd fa 69 94 bd 72 78 8b bc 76 db a7 bc
       -0.09981705 -0.07246776 -0.017025206 -0.02049039
000200 64 6d 64 3d a1 f5 9e bd 43 f8 5a bc 7a c5 5f bd
       0.055768386 -0.07761694 -0.013364854 -0.054631688
000210 3c 46 a7 3b e8 39 af 3d df c8 49 3c aa d5 a4 bd
       0.005104808 0.085559666 0.012315958 -0.08048566
000220 fb ef 09 3e db ea 93 bd 3f 34 b9 3d 51 75 cd 3d
       0.13470452 -0.072225295 0.09043168 0.10032142
000230 4b 4c a2 3c a1 39 83 3d 52 aa 82 bd 3f bd 29 bd
       0.01981177 0.06407476 -0.06380142 -0.041440245
000240 0a f5 2d bc 63 ab 46 3d 43 79 8d bd e3 ab ff 3d
       -0.010617504 0.04850329 -0.069078945 0.12483957
000250 a3 da b3 3d 4b 26 4d 3d d9 e3 0c 3e 8c c4 aa bd
       0.08781936 0.050085347 0.13758792 -0.083382696
000260 14 70 8b bd 5f 49 3c 3c a1 d6 2f bd 57 ab 26 bd
       -0.068084866 0.011492102 -0.042929295 -0.040690746
000270 08 47 ca bc 1c 5c 96 bd 59 42 5e 3d 23 da 25 bd
       -0.024692073 -0.07341787 0.054262493 -0.040491235
000280 f3 61 6b bd 13 b5 a9 3d 58 6f a9 3d 05 31 f8 bc
       -0.05746646 0.0828649 0.0827319 -0.030296812
000290 fb 33 19 3e ee 44 86 bb 6a 74 65 3d 77 2d 8e 3c
       0.14961235 -0.0040975725 0.056019224 0.017355664
0002a0 20 3f e6 bd 27 db 5d 3d 5a f1 e8 bc 5b 1a 2b bd
       -0.11242509 0.054164078 -0.028435398 -0.04177318
0002b0 90 03 72 bd eb 27 57 3d 20 50 6e 3c 39 cc 40 3d
       -0.05908543 0.052528303 0.0145454705 0.047069762
0002c0 ea 9c fc 3d c4 4a f9 bc c7 63 48 bc 10 5a c0 3d
       0.123346165 -0.030431159 -0.01223082 0.09392178
0002d0 ea 4a fa 3b e1 38 34 bd ac 6f 0e 3e 8a c0 c4 3d
       0.007638325 -0.043999556 0.13909787 0.096070364
0002e0 ab 9c 45 3d 19 5f 79 3d d5 bd c5 bd bf 25 04 3d
       0.048245113 0.060881708 -0.09655348 0.03226256
0002f0 0b 29 01 be 5a 10 23 3d fd 11 5f 3c 6e 4a be 3d
       -0.12613313 0.039810516 0.013615129 0.0929154
000300 63 e5 39 3e b3 ec bd bd f2 c2 de bd 9d 29 96 3d
       0.1815391 -0.092736624 -0.108770266 0.07332156
000310 29 fd 3a bc 73 12 8b 3d 29 98 91 3d e1 4a 98 bd
       -0.011412897 0.06790628 0.071091 -0.07436157
000320 0f d0 d1 3c 34 3c 5a bd 81 a2 74 bd ad 63 3f 3d
       0.025611905 -0.05328007 -0.05972529 0.046725918
000330 88 8c 75 bd 96 12 91 bd 2a c2 17 3e a9 af 9a bd
       -0.059948474 -0.07083623 0.14820161 -0.07553036
000340 20 b0 a1 bd 30 f9 7a bd 24 a3 05 3e 83 7d 13 3d
       -0.07894921 -0.0612728 0.13050514 0.03600837
000350 93 59 ba bd be 60 99 3b ca f1 a1 bd 74 ff 5a 3d
       -0.09099116 0.004680722 -0.07907446 0.053466275
000360 97 7b 77 3c 8a 40 e3 3d 23 4d ce bd 73 c7 3d 3d
       0.01510515 0.11096294 -0.100733064 0.046332788
000370 69 3e 9b 3d 31 bc 5c 3d a2 75 dc ba 18 a7 73 bc
       0.07580263 0.05389041 -0.0016819725 -0.014871381
000380 d8 39 9b 3c 05 e7 21 3c b8 59 c7 3d 84 d5 34 3c
       0.01894848 0.0098817395 0.09733909 0.011037234
000390 33 82 cf bc 57 78 fd 3c a4 0b 6f bc 32 0d b7 3d
       -0.025330639 0.030941172 -0.014590178 0.08938064
0003a0 6e 56 db 3d be 20 d3 bd 26 87 0a bd ab 9a 88 3a
       0.107098445 -0.103089795 -0.033820294 0.0010422071
0003b0 25 a4 04 3d e3 59 bc bc 96 cf 8a bc 2e 7a 09 bc
       0.032383103 -0.02299208 -0.016944688 -0.008390946
0003c0 4d 95 05 3e 27 60 c1 bc 26 d6 eb 3d 50 3e dd 3d
       0.13045235 -0.02360542 0.11515455 0.10802901
0003d0 34 f7 2a 3e b2 af be bd 04 a8 f8 3c 69 d5 8d 3d
       0.16695863 -0.09310855 0.030353554 0.069254704
0003e0 e6 c0 3f 38 08 57 d9 3d 11 ac 70 3d eb e7 e1 bd
       4.57176e-05 0.10612303 0.058757845 -0.11030563
0003f0 69 6e 9a 3d d7 33 09 bd 0b c6 27 3d ad a7 f1 3d
       0.0754059 -0.033496704 0.040960353 0.1179956

lstm.bias_hh_l0 f4 [256]
000000 b0 d2 ef bb c6 74 8a 3d fb 3f 67 bd a9 e8 97 ba
       -0.007318817 0.06760554 -0.0564575 -0.0011589724
000010 c4 6f cd 3d b8 78 5a bd 52 ad 3a bb f7 4c 8a bc
       0.10031083 -0.053337783 -0.0028484655 -0.016882403
000020 ae 54 e3 bb 71 23 d0 bb 76 42 32 3d d6 3d 19 3e
       -0.006937585 -0.006351881 0.043520413 0.14964995
000030 cd 6a df 3d 66 83 f5 bd a8 fc f8 3d cb 44 00 3e
       0.109090425 -0.11987953 0.12157565 0.12526242
000040 d7 d8 84 3d 7c e4 1b 3d 7a 20 06 3e 9e 88 9e 3c
       0.064866714 0.038059697 0.13098326 0.019352254
000050 3c 10 e5 bc ec 18 c7 bd ab 98 ef bd 74 8e c8 3b
       -0.027961843 -0.0972155 -0.11699041 0.0061204974
000060 08 fb ef bd aa c4 8f 3d 3e 9f 6f bd 4b 6f f6 3d
       -0.11717802 0.070199326 -0.058501475 0.12032946
000070 40 93 cc 3d c3 80 8c bc 85 c1 b4 bc 7d 56 21 3c
       0.09989023 -0.017151242 -0.022064934 0.009847281
000080 30 5a 27 3d 29 d0 ce bb ce c4 66 3d d2 cb b2 bd
       0.040857494 -0.0063114357 0.05634003 -0.08730282
000090 19 26 01 bd ed fa 41 3e 87 00 cd bd ad f3 bc bd
       -0.031530473 0.18943377 -0.10009866 -0.09226165
0000a0 76 54 4d 3c 1e 8e df bd c1 4c 16 bd 1f 17 1b 3e
       0.012532344 -0.109157786 -0.036694292 0.15145539
0000b0 bc cb 08 3e 6b 69 8c 3d ab 58 c1 bd 7b f8 b8 3d
       0.13358968 0.068560444 -0.0944074 0.09031769
0000c0 9a fd 13 3e f1 bf ab bd d5 a6 2c 3d ce 76 23 3e
       0.1445221 -0.08386219 0.04215129 0.15963289
0000d0 fb be 29 bc e0 64 9b 3d 96 89 b5 3d b2 aa ca bc
       -0.010360475 0.075876 0.08864133 -0.024739597
0000e0 1e fd 4f bd a9 22 cd 3d 36 1c ad bc 35 38 04 bd
       -0.0507785 0.100163765 -0.021131616 -0.032280166
0000f0 25 a2 7e 3c 6a 64 e9 3d b1 25 ce 3d 30 3f 79 bb
       0.015541588 0.113961056 0.10065783 -0.0038032047
000100 26 13 21 bd 4b 7e 60 3d 0c a3 00 be 0c f5 11 bd
       -0.039324902 0.054807942 -0.12562197 -0.035634086
000110 79 01 87 3c c7 75 d9 bc d5 aa f2 3b ad aa 20 3d
       0.016480194 -0.026545418 0.0074056187 0.03922527
000120 9a dc ab 3c 6a d1 00 3d 9d 7d f8 3c d6 af 15 3e
       0.020979214 0.031449713 0.030333335 0.14617857
000130 c8 08 91 3b a9 30 c3 3d a8 ec 49 bc f2 5a d3 3c
       0.0044260956 0.095307656 -0.01232449 0.025800202
000140 25 ef a6 3d 9d e0 c9 3d ff db 2d 3d 41 93 57 bd
       0.08151082 0.09857295 0.042446133 -0.052630667
000150 09 b5 a8 3d e3 36 94 3d 5b c2 de bc ae b5 68 bd
       0.08237655 0.07237031 -0.027192285 -0.05681389
000160 a1 3a 95 3d 8f 39 7c 3d 91 e0 0b bc 56 1b 92 bb
       0.07286573 0.06157833 -0.0085374275 -0.004458825
000170 71 90 64 3d dd 59 72 3d 1f c3 28 3d 1a a0 03 3e
       0.055801813 0.05916773 0.041201707 0.12854043
000180 b3 fd eb 3d ed d2 90 bd 25 90 06 3c aa 77 25 bd
       0.11522999 -0.07071481 0.008213078 -0.040397324
000190 f5 29 f4 bd 53 21 ac 3d da fa ce 3d dc 86 da 39
       -0.11922065 0.084047936 0.1010644 0.00041680678
0001a0 94 61 f5 bc 61 ac c0 bc ab ce 52 3d 4f 6e 65 3c
       -0.029953755 -0.023519697 0.051466625 0.01400335
0001b0 4e 7c 8b bc 3c 4d 54 3d 5e 4b 12 bd 8c 34 cd bd
       -0.017027047 0.05183147 -0.035716407 -0.10019788
0001c0 2c f9 22 3e b5 47 b9 bd ca a6 34 bd 87 87 39 bd
       0.15915364 -0.0904688 -0.044104375 -0.045295265
0001d0 67 23 e0 3d 2f 17 f2 bd a1 6a 56 bd 85 c9 63 bd
       0.109442525 -0.11820828 -0.052347783 -0.055612106
0001e0 ef fb 8b bd 0a 09 f7 3d 85 e8 8a 3d ed 1e 10 be
       -0.06835162 0.12062271 0.06782631 -0.14074297
0001f0 74 ff f5 3d 8b 77 82 bd 06 b4 22 bd 27 a1 ce bd
       0.120116144 -0.06370457 -0.039722465 -0.10089331
000200 51 fd fb bd 85 51 a7 bd 5b 79 1a bd 2d 6c 1c 3d
       -0.12304176 -0.081698455 -0.03771339 0.038189102
000210 74 61 21 bc 63 c4 ed bc c3 9b 64 3d a7 de 44 3c
       -0.009849895 -0.029024309 0.05581261 0.012015975
000220 b4 43 8b 3d e3 30 cb bd 2d 83 c3 bd e8 bc b6 bc
       0.06800023 -0.09921434 -0.09546504 -0.022306874
000230 8a 23 b2 3d 03 e0 c7 bd e2 6e ab 3c ca 2f 02 be
       0.08698185 -0.09759524 0.020926896 -0.12713543
000240 7b 9e ce bd 76 5f 16 bd 60 b4 52 bd f4 1d 15 bd
       -0.100888215 -0.036712132 -0.05144155 -0.03640552
000250 99 e8 7e bd 63 1e f6 3c e3 db da 3d 0a 97 b6 bd
       -0.06223354 0.030043786 0.10686471 -0.08915527
000260 a1 ff c7 3d ec 49 e2 bd 57 ae 9f bd 22 ba 80 bd
       0.09765554 -0.11049256 -0.077969246 -0.06285502
000270 d8 e4 03 bd f2 ea 39 3d 6f 4a 38 bd 89 15 a8 3d
       -0.032200664 0.045390077 -0.04499286 0.082072325
000280 c7 20 96 3d 86 2a 0a 3e cb f6 17 bc 52 72 9c 3d
       0.073304705 0.13492784 -0.009275149 0.07638992
000290 94 ea b8 bc ee 68 e1 3d 67 95 a7 bc 50 e8 37 bc
       -0.022572793 0.11006342 -0.020456983 -0.011224821
0002a0 36 54 d1 bd c4 58 0a be 7b 60 99 bc 55 0c 05 bd
       -0.1022114 -0.13510424 -0.018722763 -0.032482464
0002b0 f1 f0 44 bc b2 09 d3 3d db 2d f0 bc 8f df 5f bd
       -0.0120203355 0.103045836 -0.02931874 -0.05465656
0002c0 d1 cc e5 bd 42 7b 9a 3d a8 56 e2 bd 61 9e 3d 3c
       -0.11220706 0.07543041 -0.110516846 0.011573405
0002d0 c2 92 a6 3c 04 a1 56 bd dd ad 8a 3b c4 b5 4e bd
       0.020333651 -0.05239965 0.004232152 -0.050466314
0002e0 6a 53 08 3e 3d d4 c6 bd 19 69 74 3d 23 c2 ad 3d
       0.1331307 -0.0970845 0.05967054 0.08484294
0002f0 af 01 bf 3c 09 70 02 3e 6c c4 22 be 3a dc 9c bd
       0.023316232 0.1273805 -0.15895241 -0.076591924
000300 df de 6b 3c 0d 95 d3 bd e2 2b ec 3a b5 65 40 3d
       0.014396398 -0.103311636 0.0018018449 0.046971995
000310 67 b2 77 3d 16 c9 1a 3e 4d fe 21 3d 0a a3 14 3e
       0.060472872 0.1511577 0.03954916 0.1451532
000320 b2 0f a7 3d 96 fb 11 3e be 4f 89 3d 2e 48 3f 3e
       0.081572905 0.14256129 0.06704663 0.18679878
000330 21 1f ea 3d 21 bf e4 3c f6 a5 66 bd 13 90 ca 3b
       0.114317186 0.027923169 -0.056310616 0.0061817258
000340 54 62 5f 3d b7 ef 3e bd 98 9a 4e 3e 26 96 d6 3d
       0.054537132 -0.04661533 0.2017616 0.10477857
000350 86 bd 80 bb 7e f6 06 3b 9d 23 fc bc 63 42 39 3d
       -0.003928843 0.0020593698 -0.0307787 0.045229327
000360 dd 72 80 bc e0 11 41 3d c7 ff eb 3c 4d 0b 84 bd
       -0.015679771 0.047136188 0.028808488 -0.06447468
000370 f4 0e 01 3d ca a9 cb bc a7 0d c8 3c 40 9c 2f 3e
       0.0315084 -0.024861235 0.024420572 0.17149448
000380 b9 78 1f 3e c7 90 a6 bd 1f 4f f9 3c bc 58 7a 39
       0.15573396 -0.08133083 0.030433236 0.00023874914
000390 77 03 82 3d ee 4f 31 3e eb 67 f9 3c 9d 32 cd 3c
       0.06348317 0.17315647 0.03044506 0.025048548
0003a0 b6 c8 f9 3d 96 fa 8b 3d 82 98 3b 3d 2f 54 d4 3d
       0.12196486 0.06834905 0.04579974 0.10367619
0003b0 8b 32 d3 3d 3a ae 49 bc b5 c8 cf 3d ac 88 cb bd
       0.10312375 -0.012309605 0.10145704 -0.099381775
0003c0 72 f2 3b 3c b6 c1 34 bd 16 fa fd 3a 06 89 0b 3e
       0.011471378 -0.04413005 0.00193769 0.13626489
0003d0 ef 6f 14 bd c1 c7 e4 bb f4 f5 42 3d 68 1a 94 3d
       -0.03623956 -0.0069818203 0.04759784 0.07231599
0003e0 43 52 df 3d 54 7f 1a 3e 85 d2 39 bd ad 35 df bd
       0.10904362 0.15087634 -0.045366783 -0.1089891
0003f0 af a5 ab 3d 74 2d b8 3d 80 7e b7 3d aa 4a 0a bd
       0.08381211 0.089930445 0.08959675 -0.03376261

fc.weight f4 [1, 64]
000000 6a 19 d4 bd f6 fa 4b 3d 20 67 4f 3b 02 21 ba 3d
       -0.1035641 0.049799882 0.003164716 0.09088327
000010 71 6f 25 be 69 49 13 3e 15 07 da bd 91 20 e1 bd
       -0.16155793 0.14383473 -0.10645882 -0.1099254
000020 4f 65 8a 3d 16 99 fa bd e8 e7 cf 3d f6 d0 0f 3e
       0.06757604 -0.1223623 0.101516545 0.14044556
000030 c8 59 92 3d c0 98 4b 3c 0a 8d 05 be 63 86 92 bd
       0.07146031 0.012426555 -0.13042083 -0.071545385
000040 bd 72 17 bd b8 02 2b 3e be 77 c2 bd 50 c4 ba 3d
       -0.036974657 0.16700256 -0.09495495 0.09119475
000050 b4 22 54 3d 83 e6 48 3c a2 81 cb 3c 43 cd 43 bd
       0.051790908 0.0122619895 0.024842087 -0.047803175
000060 3d 7e 48 bd ce 85 9a 3d d3 14 c7 bd 95 17 f1 3d
       -0.048948515 0.075450525 -0.09720769 0.11772076
000070 f2 dc 76 3b 27 cc 12 3e d7 1b 0b be 41 e0 ac 3d
       0.0037668315 0.1433569 -0.13584839 0.084412105
000080 30 d1 12 3e 07 9e f2 3d 04 f5 ab bd cc 06 00 3d
       0.14337611 0.118465476 -0.083963424 0.031256482
000090 a8 7c a5 3c 67 dc 47 bd cd 2c 4d bd 5b 7b 99 3d
       0.020201042 -0.048794176 -0.050091553 0.07494231
0000a0 11 8a 7a bd 45 b7 c3 bd 67 6a bb 3d 4d b1 01 3e
       -0.061166827 -0.0955644 0.09151154 0.12665291
0000b0 4b 99 0c 3e 2b 1b 77 bd 50 00 19 3d 92 41 49 bd
       0.13730352 -0.060328644 0.037353814 -0.0491348
0000c0 f3 cd 56 3e 92 dd 20 bd f9 53 aa bd 63 62 25 3d
       0.20977001 -0.039273806 -0.08316798 0.040377032
0000d0 eb 38 12 bd b3 97 cb bc 0c d3 95 3d 21 d5 a5 3b
       -0.035698812 -0.02485261 0.073156446 0.0050608073
0000e0 f0 f0 1f 3d c6 42 e9 bd 1e d4 b3 bd e0 dc 52 bd
       0.039048135 -0.11389689 -0.087806925 -0.051480174
0000f0 69 01 f6 bd 25 b7 54 3d 6a 8c 94 3d 18 9c ca 3d
       -0.12011988 0.051932473 0.07253344 0.09893054
