api/model_files/youbike_lstm.pth (torch, 73594 bytes, 5 tensors)

lstm.weight_ih_l0 f4 [256, 3]
0	0x3eb0a25a	0.34498864
1	0xbd5f57c5	-0.054527063
2	0xbe33276a	-0.17495504
3	0xbe0cf7ad	-0.13766356
4	0xbe227cae	-0.15867874
5	0xbcc7860c	-0.02435591
6	0x3e48131a	0.19538537
7	0xbcb8d03f	-0.022560237
8	0x3c8eb6b5	0.017421106
9	0x3ecc3f76	0.39892167
10	0xbe270a10	-0.16312432
11	0xbdd163d8	-0.10224122
12	0x3e773849	0.24142565
13	0x3e24d8a3	0.16098265
14	0xbe7681ac	-0.24072903
15	0x3e90eadd	0.28304186
16	0x3deb6db7	0.11495536
17	0xbdd37394	-0.10324779
18	0x3e209105	0.1568032
19	0xbd3d179c	-0.046165094
20	0xbddd12bb	-0.10794588
21	0x3e683d5d	0.22679658
22	0xbd734ab5	-0.059397418
23	0xbe99bc67	-0.30026552
24	0x3eb271bc	0.34852397
25	0xbdb6d760	-0.08927798
26	0xbe466b0d	-0.19376774
27	0x3e59356e	0.21211788
28	0xbd1888f7	-0.037239995
29	0xbe33fb4d	-0.17576332
30	0x3eb22e97	0.3480117
31	0x39b20a4a	0.00033958472
32	0x3cafb559	0.021448778
33	0x3ea40d19	0.32041243
34	0xbdc73840	-0.09727526
35	0xbdfc3bfe	-0.1231613
36	0x3e46ee61	0.19426872
37	0x3c787b6d	0.015166146
38	0xbd2210cd	-0.039566804
39	0xbeb90c96	-0.36142415
40	0xbd806ea7	-0.06271105
41	0xbd3ae519	-0.04562864
42	0x3e5f6279	0.21814908
43	0xbe00ecd2	-0.1259034
44	0xbdc2eefc	-0.09518239
45	0xbc83910a	-0.016060371
46	0xbe1f9b52	-0.15586594
47	0xbdc08772	-0.09400834
48	0x3e257c7c	0.16160768
49	0xbd3b7330	-0.04576415
50	0xbd6576a3	-0.056021344
51	0x3e47e767	0.19521867
52	0xbd7e169b	-0.062033277
53	0xbe733109	-0.23749174
54	0x3e319413	0.17341642
55	0xbd2b7df7	-0.041868176
56	0xbd95ece3	-0.07320573
57	0xbe1d8b0c	-0.15385073
58	0xbe560b91	-0.2090285
59	0xbe533342	-0.20625022
60	0x3e7c746d	0.24653788
61	0xbe1bf11a	-0.15228692
62	0xbdee6850	-0.1164099
63	0x3e99bc1e	0.30026335
64	0x3d81f0b5	0.06344739
65	0xbcca62ec	-0.024705373
66	0xbd812ebc	-0.06307742
67	0xbd3a2806	-0.045448326
68	0x3e1c7407	0.15278636
69	0x3e82f7d5	0.25579706
70	0x3d35becd	0.044371415
71	0xbe137a6f	-0.14402173
72	0x3d34cacb	0.04413871
73	0xbe30ff6b	-0.17284934
74	0x3d2aac44	0.04166819
75	0x3c9e7d12	0.019346748
76	0xbe7f3468	-0.24922335
77	0xbe95ab7d	-0.29232398
78	0x3e5cf98a	0.21579567
79	0x3d995164	0.07486227
80	0xbc38ac4e	-0.011271549
81	0x3e7e00d1	0.24804999
82	0x3dcbd8fd	0.099534966
83	0x3cf91f09	0.030410307
84	0x3ef27a39	0.47358873
85	0x3d7a9611	0.06117827
86	0xbe79332f	-0.24335931
87	0xbe124a5f	-0.14286183
88	0xbd1045bc	-0.035222754
89	0xbe21cad7	-0.15800034
90	0x3df7e0c9	0.12103421
91	0x3dfc5405	0.12320713
92	0x3ce260cd	0.027634049
93	0x3e1650d6	0.14679274
94	0xbdca1a03	-0.098682426
95	0xbe35b02e	-0.17742988
96	0x3e594f71	0.2122171
97	0xbdae6e19	-0.08517093
98	0xbd97b606	-0.07407765
99	0x3eab7860	0.33490276
100	0x3d236a20	0.03989613
101	0xbc8fa1ce	-0.01753321
102	0x3e73819d	0.23779912
103	0xbd8f6421	-0.0700152
104	0xbe52cd67	-0.20586167
105	0x3e3d5646	0.18489942
106	0x3e08e62e	0.13369057
107	0xbd9b56da	-0.07584925
108	0x3ec259a6	0.3795902
109	0x3c3832f1	0.011242614
110	0x3cad098e	0.02112272
111	0x3d6035db	0.05473886
112	0xbe5b3b03	-0.2140923
113	0xbe77cca0	-0.24199152
114	0x3d23db1b	0.040003877
115	0x3cf609cf	0.030033974
116	0x3c89eb52	0.016835842
117	0x3e612701	0.21987535
118	0x3d9d59fc	0.07683179
119	0xbd992a59	-0.0747878
120	0x3f0a8740	0.54112625
121	0xbc7e7fdf	-0.0155334165
122	0xbe14537a	-0.14484969
123	0x3e74829c	0.23877949
124	0xbcf9f1b8	-0.030510768
125	0x3cfff7e5	0.031246135
126	0x3ec48104	0.3837968
127	0xbabed47a	-0.0014559173
128	0x3ccde806	0.025135051
129	0x3e9011fd	0.28138724
130	0xbbba5e8a	-0.0056875395
131	0xbe223237	-0.15839468
132	0x3e444c00	0.19169617
133	0xbe050eb5	-0.12993892
134	0x3d2098ed	0.03920834
135	0x3e709604	0.23494726
136	0xbdf2296c	-0.11824307
137	0xbe3691ca	-0.17829052
138	0xbc014836	-0.007890752
139	0xbe3e789b	-0.18600695
140	0xbe0b6450	-0.13612485
141	0x3e8c6c9c	0.27426612
142	0xbd881ab0	-0.06645715
143	0xbe8d0ddb	-0.27549633
144	0xbe15768b	-0.14596002
145	0xbe64c6fa	-0.22341529
146	0xbe6ed53e	-0.23323533
147	0xbe40ba99	-0.18821181
148	0xbde65c96	-0.11248128
149	0xbde211fa	-0.11038585
150	0xbe895aea	-0.26827174
151	0x3d5a0ce4	0.05323495
152	0xbcc4d9b5	-0.024029592
153	0x3ccd8090	0.025085717
154	0x3c49c23f	0.012314378
155	0xbe18a14c	-0.1490528
156	0x3e3630c0	0.17792034
157	0xbd7d38ee	-0.06182187
158	0xbd66803f	-0.05627465
159	0xbdfab5ec	-0.1224173
160	0xbaac4658	-0.0013143523
161	0xbe959daa	-0.2922185
162	0x3d5374cb	0.051625054
163	0x38a359b8	7.789157e-05
164	0x3dc63ed7	0.096799545
165	0xbdc1967c	-0.09452531
166	0x3ceffe60	0.0292961
167	0xbd038ee0	-0.032118678
168	0x3dc211d4	0.09476057
169	0xbe090a08	-0.13382733
170	0xbe32bc5f	-0.1745467
171	0x3d271888	0.04079488
172	0x3daf721a	0.08566685
173	0xbde8d126	-0.11368017
174	0x3e24ef9d	0.1610703
175	0x3e6598c0	0.22421551
176	0x3dee0105	0.11621288
177	0x3e94ada1	0.29038718
178	0xbced6080	-0.028976679
179	0xbe4fb38d	-0.20283337
180	0x3e6eb06e	0.2330949
181	0xbd82c8dd	-0.06385968
182	0x3b953bc3	0.0045542433
183	0x3e5c23d7	0.21498047
184	0x3d06d233	0.032915305
185	0xbe06616d	-0.13123102
186	0x3d1a7822	0.037712224
187	0x3d533a0b	0.051569026
188	0xbda8fb39	-0.08251042
189	0xbdc7eb34	-0.09761658
190	0xbe7d6cc6	-0.24748525
191	0xbcd00594	-0.025393285
192	0x3ec99d3e	0.3937778
193	0xbe35a7e9	-0.17739834
194	0xbde3bf6c	-0.11120495
195	0xbe3774fb	-0.17915718
196	0xbc698ffe	-0.014255522
197	0xbc843025	-0.016136238
198	0x3ec7dc09	0.3903506
199	0xbdb1d67f	-0.0868349
200	0xbd846474	-0.064644724
201	0x3ea4dfcd	0.32201996
202	0xbd63d828	-0.055626065
203	0xbbd60d1d	-0.006532325
204	0x3e3ec8a0	0.1863122
205	0xbca85f0e	-0.020553138
206	0xbe6227ec	-0.22085541
207	0x3eb168a3	0.34650144
208	0xbe11e49d	-0.14247365
209	0xbe352793	-0.17690878
210	0x3e3ae75a	0.18252316
211	0xbd91381e	-0.07090782
212	0xbdec84f8	-0.11548799
213	0x3e1b7e98	0.1518501
214	0xbd473727	-0.04863658
215	0xbe813afc	-0.25240314
216	0x3e013d57	0.12621056
217	0xbe2367de	-0.15957591
218	0xbe52d158	-0.20587671
219	0x3e42acfd	0.19011302
220	0x3c92ff03	0.017943865
221	0xbdacac5f	-0.08431315
222	0x3e6295de	0.22127482
223	0xbe2191dc	-0.15778297
224	0xbdb6699c	-0.08906862
225	0x3e4ea182	0.20178798
226	0xbe3d1e2d	-0.18468542
227	0xbd214ff0	-0.039382875
228	0x3e880529	0.26566437
229	0x3b1995ff	0.0023435352
230	0xbdb87bb5	-0.0900797
231	0xbee2aa55	-0.44270578
232	0xbc0cac9c	-0.008586075
233	0xbc983c5f	-0.018583475
234	0x3e323bc9	0.17405619
235	0x3a92fc55	0.0011214117
236	0x3d7a0c5e	0.06104695
237	0x3cad757b	0.021174183
238	0xbe2a42c6	-0.16627035
239	0x3dc863bd	0.097846486
240	0x3e2c5de7	0.16832696
241	0xbcdceb75	-0.026967743
242	0xbd09923b	-0.033586722
243	0x3e1ad753	0.15121202
244	0xbdad1817	-0.084518604
245	0xbeb901ee	-0.36134285
246	0x3ec57834	0.3856827
247	0xbd9d1e0d	-0.07671747
248	0xbd8c6fd5	-0.06857268
249	0xbe4e485b	-0.20144789
250	0xbd995141	-0.07486201
251	0xbd943ed2	-0.072385445
252	0x3ea79f27	0.3273861
253	0xbdc9e971	-0.098589785
254	0xbe580de1	-0.21099044
255	0x3e575a6f	0.21030591

lstm.weight_hh_l0 f4 [256, 64]
0	0xbca5c719	-0.020236539
1	0xbcc9f612	-0.024653468
2	0xbdc854a4	-0.09781769
3	0xbdacb542	-0.0843301
4	0x3d4ddfb2	0.05026216
5	0xbd7719ff	-0.060327526
6	0xbc88d12e	-0.016701307
7	0xbda33142	-0.079683796
8	0x3d0efa83	0.034906875
9	0x3d8ec5c3	0.06971314
10	0x3dafc64d	0.08582745
11	0xbdc77112	-0.09738363
12	0x3d812677	0.06306165
13	0xbc93995c	-0.018017463
14	0xbcf49af9	-0.029859053
15	0x3d5402a1	0.05176032
16	0x3d14446c	0.036198065
17	0x3dd20acd	0.10255966
18	0x3d1fee03	0.039045345
19	0xbd5494b7	-0.051899638
20	0x3cff8531	0.03119144
21	0x3d591ec8	0.05300787
22	0xbcebd29d	-0.028786952
23	0xbde32ebd	-0.11092899
24	0x3db3d863	0.08781507
25	0x3c9c1efe	0.019057747
26	0xbd3cd5c4	-0.0461023
27	0x3df53bc4	0.1197429
28	0x3c12bf6a	0.0089567695
29	0x3d1c324d	0.038133908
30	0xbd95f3af	-0.073218696
31	0x3e04c1d3	0.12964563
32	0x3cde5038	0.02713786
33	0xbd59390e	-0.053032927
34	0xbccf57e9	-0.025310474
35	0x3df98c96	0.12185018
36	0xbdd942e5	-0.10608462
37	0xbe1cb14b	-0.15302007
38	0x3be87fdf	0.0070953215
39	0x3df01f19	0.117246814
40	0x3bc9817b	0.0061494685
41	0xbe4b15db	-0.19832556
42	0x3e18b7d9	0.14913882
43	0xbb19c211	-0.002346162
44	0xbd635c49	-0.05550793
45	0xbddbf86a	-0.107407406
46	0x3d959963	0.07304647
47	0xbb02bfa8	-0.0019950662
48	0x3d83814e	0.06421147
49	0xbdbea58c	-0.09308919
50	0xbd6569c9	-0.056009088
51	0x3df6a4ed	0.12043176
52	0xbd1ef8ed	-0.038811613
53	0xbe4fe13c	-0.20300764
54	0xbe75bf8b	-0.23998849
55	0xbda69301	-0.081335075
56	0x3bc27004	0.0059337635
57	0xbe0d8481	-0.13820077
58	0xbd69ca3b	-0.057077628
59	0xbd0784f0	-0.033085763
60	0x3dca2024	0.098694116
61	0x3d2e2653	0.042517018
62	0xbdadbe1c	-0.08483526
63	0xbcaebd53	-0.021330511
64	0x3d6cd66d	0.05782168
65	0x3dc82063	0.09771802
66	0xbc4c1a07	-0.012457377
67	0x3d8d061e	0.068859324
68	0x3e1b5aa9	0.15171303
69	0xbdcb63d1	-0.09931148
70	0xbe427e40	-0.18993473
71	0x3d2e42dd	0.042544235
72	0x3ddf6153	0.10907235
73	0xbdaaefb8	-0.08346504
74	0xbc47f927	-0.012205399
75	0x3c93b4d2	0.018030558
76	0xbcafd477	-0.021463616
77	0x3d41d85d	0.04732548
78	0xbe442af8	-0.19157016
79	0x3e102e19	0.14080085
80	0x3db552e0	0.08853698
81	0xbd7c618e	-0.061616473
82	0x3d7ad6ef	0.061240133
83	0x3d4b1edb	0.049589973
84	0xbd8dee46	-0.06930213
85	0x3dcaf093	0.09909167
86	0x3d8739b1	0.06602801
87	0x3d4b6cb7	0.049664225
88	0x3c321ca1	0.0108710835
89	0xbd259586	-0.0404258
90	0xbdb8dca4	-0.09026459
91	0xbd8114b4	-0.06302777
92	0xbdf86f24	-0.121305734
93	0xbe00de30	-0.12584758
94	0xbd7ca7de	-0.061683528
95	0xbba5be56	-0.00505809
96	0xbcee8ea4	-0.02912075
97	0xbda638ba	-0.081162885
98	0x3d9f0337	0.07764285
99	0xbd911202	-0.07083513
100	0x3d6802e9	0.0566434
101	0xbe3cbc36	-0.18431172
102	0x3d4b7015	0.049667437
103	0x3acae3c1	0.0015479253
104	0xbbc38964	-0.005967306
105	0xbe02cef6	-0.12774262
106	0xbe014ca8	-0.12626898
107	0xbdda942b	-0.10672792
108	0xbe1c7f7d	-0.15283008
109	0x3c5461ab	0.012962739
110	0xbb565ebe	-0.003271028
111	0xbe0beff0	-0.13665748
112	0x3e2d31b6	0.16913494
113	0x3cdaba55	0.026700178
114	0xbd74a863	-0.0597309
115	0x3e421c3d	0.18956085
116	0x3bc3d6d1	0.005976536
117	0xbe1b50be	-0.1516752
118	0x3acbfc0d	0.0015562788
119	0xbe3930e8	-0.18085063
120	0x3e21f635	0.15816577
121	0xbdc341a8	-0.09534007
122	0xbdbc1a24	-0.091846734
123	0xbbac025d	-0.005249305
124	0xbe099486	-0.13435563
125	0xbe137cc4	-0.14403063
126	0xbe51b392	-0.20478657
127	0x3e3b994a	0.18320194
128	0xbc42e981	-0.011896492
129	0xbd2911cb	-0.041276734
130	0x3e1b147d	0.15144534
131	0xbe113698	-0.14180982
132	0xbda9cea4	-0.08291367
133	0xbb7f36bd	-0.0038942539
134	0xbdbde8ea	-0.092729405
135	0xbe3b9c23	-0.1832128
136	0xbdb27cce	-0.08715211
137	0xbe39924f	-0.18122219
138	0x3d203b80	0.039119244
139	0x3d89a98e	0.06721793
140	0x3bd6a509	0.0065504354
141	0xbdf821e4	-0.12115839
142	0x3bd13e9b	0.006385637
143	0xbddc6bbf	-0.107627384
144	0x3c2406fa	0.010011429
145	0xbc849c11	-0.0161877
146	0xbd9f8f5b	-0.07791015
147	0x3d2c2dc4	0.042035833
148	0x3e423eef	0.1896932
149	0xbe02a56b	-0.12758414
150	0x3df1fb91	0.118155606
151	0x3c32d853	0.0109158335
152	0x3e0c62de	0.1370959
153	0x3c4ac27a	0.012375468
154	0x3e05b557	0.13057457
155	0x3a823997	0.0009935376
156	0xbc8e4ac5	-0.017369637
157	0xbdbd2269	-0.09235079
158	0xbd6de0d6	-0.05807575
159	0x3bb7a767	0.0056046727
160	0x3e0f4613	0.13991575
161	0x3da8731f	0.082250826
162	0x3b217bdc	0.0024640476
163	0x3e216c1e	0.157639
164	0xbe032df3	-0.12810497
165	0x3d8199ae	0.0632814
166	0x3dd23671	0.1026429
167	0x3e05e81e	0.13076827
168	0xbdbab0a9	-0.091157265
169	0x3d1fb952	0.038995095
170	0xbc38407f	-0.011245846
171	0x3c5fefb4	0.0136679895
172	0x3e51fd4f	0.20506786
173	0x3d290449	0.041263852
174	0x3d82caed	0.06386361
175	0xbd68f837	-0.05687734
176	0x3dc1ed56	0.09469096
177	0xbc997f7a	-0.018737543
178	0xb9cbc969	-0.0003886924
179	0x3e406112	0.1878703
180	0x3e2b4a01	0.16727449
181	0xbdd28932	-0.10280074
182	0xbd448ccc	-0.047985837
183	0xbe13a674	-0.14418966
184	0xbd4c70ef	-0.04991239
185	0xbe464e85	-0.1936589
186	0x3d24a1e0	0.04019344
187	0x3dd5c360	0.104376554
188	0x3dfa9492	0.12235369
189	0x3d924917	0.07142847
190	0xbe08252a	-0.13295427
191	0x3e0a8489	0.1352712
192	0xbe0cc54e	-0.13747141
193	0xbdc97037	-0.098358564
194	0xbd8dacf1	-0.069177516
195	0x3dd19d2d	0.10235057
196	0xbdd5e713	-0.104444645
197	0x3d8d7749	0.069075175
198	0x3e447564	0.19185406
199	0x3d27b21f	0.040941354
200	0x3e0c56bc	0.13704962
201	0x3df05a28	0.11735946
202	0xbd8b2c22	-0.06795527
203	0xbda523b7	-0.08063453
204	0x3c4212a3	0.011845264
205	0x3df5d6d0	0.12003863
206	0x3dff5b69	0.12468607
207	0x3d4a1080	0.049332142
208	0xbe035885	-0.12826736
209	0xbdfe65b4	-0.12421742
210	0x3e06ab57	0.13151298
211	0x3d78a058	0.06069979
212	0xbdb00625	-0.08594922
213	0xbdffce55	-0.124905266
214	0xba6cabda	-0.00090282934
215	0x3b1fdcbc	0.0024393043
216	0xbd71f41e	-0.0590707
217	0x3dc7ca84	0.09755424
218	0xbdb0acfc	-0.08626744
219	0xbdac722d	-0.08420215
220	0x3d91cb0a	0.07118805
221	0xbde73054	-0.11288515
222	0xbd5ada4d	-0.053430844
223	0xbb28b236	-0.0025740988
224	0xbd89ba2c	-0.067249626
225	0xbce260c4	-0.027634032
226	0x3dbe9a7e	0.09306811
227	0x3d990a27	0.074726395
228	0x3dc106df	0.09425139
229	0x3da4103f	0.08010911
230	0x3bed44a6	0.0072408495
231	0xbdd9eaa8	-0.1064046
232	0x3bf0a344	0.0073436815
233	0x3d85f0f7	0.06540101
234	0xbd87b57f	-0.066264145
235	0xbde7d8cd	-0.11320648
236	0x3d5603a7	0.052249577
237	0xbdc8e328	-0.098089516
238	0xbb2a26a4	-0.0025962973
239	0xbcca6350	-0.024705559
240	0x3c6fb2e0	0.0146300495
241	0xbe0d34c7	-0.13789664
242	0x3e2a834e	0.16651651
243	0x3dbc88ae	0.09205757
244	0x3cecbecf	0.028899578
245	0xbc95ee8a	-0.01830222
246	0x3d1f33da	0.03886781
247	0x3b6ac443	0.0035822548
248	0x3cbae308	0.022813335
249	0x3ccc9681	0.02497411
250	0xbb8f010f	-0.00436414
251	0xbd89b29a	-0.06723519
252	0x3bded16c	0.0067998674
253	0x3c7e3132	0.015514659
254	0xbde6f694	-0.112775
255	0xbd68abb1	-0.056804363

lstm.bias_ih_l0 f4 [256]
0	0xbdd5edf9	-0.1044578
1	0xbdbfed3d	-0.093714215
2	0x3e26c103	0.16284566
3	0xbd4f78c3	-0.050652277
4	0x3e441706	0.19149408
5	0xbd039dec	-0.032133028
6	0xbd0e3392	-0.03471715
7	0x3c28facc	0.010313701
8	0x3dedd7a1	0.116133936
9	0xbd9b529b	-0.07584115
10	0x3d9ac3e6	0.07556896
11	0x3d2cd3a3	0.04219402
12	0x3e3a8a59	0.18216838
13	0x3da29ae4	0.07939699
14	0x3d7b1b2c	0.06130521
15	0xbd950120	-0.07275605
16	0xbcc6781d	-0.024227196
17	0xbd24413b	-0.04010127
18	0x3d615d08	0.055020362
19	0x3cc2a009	0.023757951
20	0xbca84d99	-0.020544814
21	0x3e14d805	0.1453553
22	0xbe1328de	-0.14371058
23	0x3d76c858	0.060249656
24	0xbdf57b60	-0.119864225
25	0xbe51fc9a	-0.20506516
26	0x3d25e71a	0.0405036
27	0x3df3e470	0.11908805
28	0x3d882e9d	0.06649516
29	0xbe090d25	-0.1338392
30	0x3d75c586	0.060002826
31	0x3e48d8ad	0.19613905
32	0x3d2a22a2	0.041536935
33	0x3d8b6321	0.06806017
34	0xbe33d8dd	-0.17563196
35	0x3e0e5e47	0.13903151
36	0x3d43d350	0.047808945
37	0xbd902c08	-0.07039648
38	0x3d3440b1	0.044007007
39	0xbbaee1a6	-0.005336958
40	0xbd9140fc	-0.07092473
41	0xbc5f8459	-0.013642394
42	0x3d8a6160	0.06756854
43	0x3df66018	0.12030047
44	0xbd10e17f	-0.0353713
45	0x3c8bace8	0.017050222
46	0xbe48d563	-0.1961265
47	0xbddd6407	-0.10810094
48	0xbe4522a9	-0.19251503
49	0x3cc626b5	0.024188379
50	0xbdbb6f8e	-0.09152137
51	0x3d6d93e9	0.058002386
52	0x3d4b9caf	0.049709972
53	0x3ca61e82	0.02027822
54	0x3b46d1c6	0.0030337437
55	0xbdd26f0d	-0.102750875
56	0xbd3b2687	-0.04569104
57	0xbd6b2e0c	-0.05741696
58	0x3df0f0f8	0.11764711
59	0x3d9255a6	0.071452424
60	0x3dbc5d59	0.09197492
61	0x3ea503a7	0.3222935
62	0xbde4a08d	-0.11163435
63	0xbd6fd506	-0.058552764
64	0xbbfb200e	-0.0076637333
65	0xbd9396ae	-0.07206474
66	0x3dc909a1	0.0981629
67	0xbc8cb17f	-0.01717448
68	0x3c5af691	0.01336445
69	0xbdf8c225	-0.12146405
70	0x3c55c3f3	0.013047206
71	0xba3e4abc	-0.0007259061
72	0x3d9df2eb	0.077123486
73	0xbe018edd	-0.12652154
74	0xbdb7b2c2	-0.08969642
75	0xbdfa0ecf	-0.12209856
76	0xbdb0a14d	-0.08624516
77	0xbd519666	-0.05116882
78	0xbe4de857	-0.20108162
79	0xbe334a40	-0.17508793
80	0xbe508e76	-0.20366845
81	0x3dadc435	0.08484689
82	0x3caf2960	0.021382034
83	0xbdea53da	-0.11441775
84	0x3bfb71a8	0.007673461
85	0x3d7285ce	0.059209637
86	0xbe8ff39b	-0.28115544
87	0x3c455d0e	0.012046112
88	0x3cf87dac	0.030333363
89	0x3a5cf21d	0.00084284117
90	0x3d6d75e5	0.05797376
91	0xbcc7f86b	-0.024410447
92	0xbd6bbd3f	-0.057553526
93	0x3d431b46	0.04763343
94	0x3dee04cf	0.11622011
95	0xbe53383b	-0.20626919
96	0x3d8c2dbe	0.06844662
97	0x3c07fd4b	0.008300136
98	0x3d921195	0.0713226
99	0x3d37d552	0.044881172
100	0xbd19d581	-0.03755713
101	0x3be591f2	0.0070059234
102	0x3cb265fc	0.021777146
103	0xbd8f1421	-0.06986261
104	0xbe36a4fc	-0.17836374
105	0xbdf48b89	-0.11940677
106	0xbca79009	-0.020454424
107	0xbc726b59	-0.0147961015
108	0x3d5da776	0.05411478
109	0x3cb58d62	0.022162143
110	0xbe5cc99a	-0.2156128
111	0x3bcc5f40	0.0062369406
112	0xbe4df538	-0.20113075
113	0xbdbe7d7c	-0.09301278
114	0xbe083332	-0.1330078
115	0xbdf1f631	-0.118145354
116	0xbd105c49	-0.03524426
117	0xbe4e26d7	-0.20132004
118	0x3cc79aa0	0.024365723
119	0xbd82e233	-0.063908
120	0xbe003318	-0.1251949
121	0xbd162cd7	-0.036663856
122	0xbe22b9fa	-0.15891257
123	0xbe2bf799	-0.1679367
124	0xbc47515c	-0.012165394
125	0xbd831e91	-0.064023145
126	0xbd8063fa	-0.06269069
127	0xbd094ff9	-0.033523533
128	0xbd9e06b5	-0.07716123
129	0x3d211ec9	0.039336
130	0x3c99e571	0.018786164
131	0xbd975538	-0.07389301
132	0xbdb1fbb3	-0.08690586
133	0xbd6521d6	-0.05594047
134	0x3d3dd277	0.046343293
135	0x3d768d54	0.060193375
136	0x3c6d5ee1	0.014487953
137	0xbd955d2e	-0.07293163
138	0xbd843aff	-0.06456565
139	0x3dd20fdb	0.102569304
140	0x3ba64c36	0.005075003
141	0xbc1de67b	-0.00963747
142	0x3c94251e	0.018084105
143	0xbcf41b55	-0.02979819
144	0x3c1e46b6	0.0096604135
145	0x3d0723db	0.03299318
146	0xbd1c88b1	-0.038216297
147	0x3d8273c3	0.06369736
148	0x3cd9017a	0.026489962
149	0xbd927428	-0.07151061
150	0x3d76597f	0.060143944
151	0x3da5cbfd	0.08095548
152	0x3c9ab312	0.018884216
153	0xbd798414	-0.060916975
154	0xbde85350	-0.113440156
155	0x3bc7397e	0.0060798516
156	0xbd37b96f	-0.044854578
157	0xbd396382	-0.045260914
158	0x3d071f5a	0.032988884
159	0xbc3d8836	-0.01156812
160	0xbc173121	-0.009228022
161	0x3e05e63a	0.13076106
162	0xbd1b722a	-0.037950672
163	0x3d8f48b3	0.06996288
164	0x3deec966	0.116595075
165	0x3d060926	0.03272357
166	0xbd61b801	-0.05510712
167	0x3d292d6a	0.041303076
168	0xbbf6f4b7	-0.0075364965
169	0xbc19d5ac	-0.009389322
170	0xbb3db6fc	-0.0028948179
171	0x3dac6344	0.08417371
172	0x3d0ae421	0.033908967
173	0xbdb4a2b6	-0.08820097
174	0x3d62819f	0.055299398
175	0x3d079fee	0.033111505
176	0xbb1f422c	-0.0024300916
177	0x3dd93089	0.106049605
178	0xbdf38080	-0.11889744
179	0xbd6171b0	-0.05504006
180	0xbb0d1733	-0.002152872
181	0x3c79b094	0.015239853
182	0xbcc38bd2	-0.023870382
183	0xbdff2bf2	-0.12459554
184	0x3d9c8536	0.076425955
185	0xbda4fcd8	-0.080560386
186	0xbd9bf075	-0.07614223
187	0xbbbcd42c	-0.0057625975
188	0xbcc1ecc6	-0.023672473
189	0xbc0e9819	-0.008703255
190	0x3cb32d63	0.021872228
191	0xbc418509	-0.011811503
192	0xbd0eb379	-0.034839127
193	0xbe31aac5	-0.173503
194	0x3d40b895	0.04705103
195	0xbbf02b2d	-0.0073293657
196	0xbc0a6728	-0.008447446
197	0x3e16f0b1	0.14740254
198	0xbcae39b6	-0.021267753
199	0xbc466096	-0.012107989
200	0x3cfb29cf	0.030659584
201	0x3d2d2990	0.042275965
202	0x3d8975f1	0.06711949
203	0x3dcaf7db	0.09910556
204	0x3dd3ce2b	0.10342058
205	0x3d8d3626	0.068950936
206	0x3c03765e	0.008023826
207	0xbe20dab9	-0.15708436
208	0xbe1cf0a4	-0.15326172
209	0x3db1aa56	0.08675067
210	0x3e12f626	0.1435171
211	0xbe24bb3a	-0.16087046
212	0x3e20bed7	0.156978
213	0x3e1dc22c	0.15406102
214	0xbe1e0f9d	-0.15435643
215	0x3db66f53	0.08907952
216	0xbd19ef73	-0.037581872
217	0xbd8f74a5	-0.0700467
218	0x3e56b067	0.2096573
219	0xbd9eab5c	-0.07747528
220	0x3d3a3992	0.04546506
221	0xbe06981a	-0.1314396
222	0x3e83c819	0.257386
223	0x3bade0a1	0.005306319
224	0x3d146e5b	0.036238056
225	0x3d68f06b	0.056869905
226	0xbe2325e7	-0.15932427
227	0x3deafd80	0.114741325
228	0x3d954d97	0.0729019
229	0xbe1c6d82	-0.15276149
230	0x3c2c6e55	0.010524352
231	0x3c2c1247	0.0105024045
232	0xbd98432f	-0.07434689
233	0x3c4f7190	0.012661353
234	0x3e06cf46	0.13165006
235	0xbb88580c	-0.0041608866
236	0x3cd96285	0.026536236
237	0xbc58afc1	-0.013225497
238	0xbd954eaf	-0.07290398
239	0xbe067ae1	-0.13132812
240	0xbc94bef8	-0.018157467
241	0xbd053342	-0.032519586
242	0xbd6860b4	-0.05673285
243	0x3babc234	0.0052416567
244	0x3dc6f014	0.0971376
245	0xbd28cbec	-0.0412101
246	0xbcedaab1	-0.029012056
247	0xbdc897d8	-0.09794587
248	0xbdbcaa3a	-0.09212156
249	0x3de90e63	0.11379697
250	0x3cd8f270	0.02648279
251	0x3d9c26c1	0.07624579
252	0x3e05463f	0.13015078
253	0x3e3a9b5e	0.1822333
254	0xbd8c6629	-0.06855423
255	0xbe5208ce	-0.20511171

lstm.bias_hh_l0 f4 [256]
0	0x3db30ab9	0.087422796
1	0xbcae5f31	-0.021285625
2	0x3d87ee06	0.06637196
3	0xbe066692	-0.13125065
4	0xbb9d3f86	-0.0047988323
5	0xbcfb9a95	-0.030713359
6	0xbc3611de	-0.011112658
7	0x3c9da832	0.01924524
8	0xbc6850e1	-0.014179439
9	0xbe1d91cb	-0.15387647
10	0xb8c72904	-9.496699e-05
11	0xbdb986cc	-0.090589136
12	0x3d2a41e6	0.041566752
13	0x3d945957	0.07243603
14	0xbd92eb72	-0.07173814
15	0xbd518d5d	-0.051160205
16	0xbd09c9dd	-0.033639777
17	0x3d81f492	0.06345476
18	0x3e16bcfc	0.1472053
19	0x3d02b940	0.03191495
20	0xbb403caf	-0.0029333045
21	0x3dc564dd	0.09638379
22	0xbe53faec	-0.20701188
23	0x3d318552	0.043340035
24	0xbd8fbb54	-0.07018152
25	0x3cdeb2ef	0.027184932
26	0x3da02a38	0.078205526
27	0x3d59f299	0.053209875
28	0x3e285d9c	0.16441959
29	0x3c864854	0.01639191
30	0x3d323ef6	0.043517075
31	0x3e182b23	0.14860205
32	0x3d63b0d8	0.055588573
33	0x3d9fff0b	0.078123175
34	0x3bff16e9	0.0077847135
35	0x3db176e9	0.086652584
36	0x3e397d5a	0.18114224
37	0x3b2f224c	0.0026723323
38	0xbbe28c7a	-0.006913719
39	0xbd859d14	-0.06524101
40	0xbd887f5a	-0.066649154
41	0xbd8bd5c9	-0.06827886
42	0xbd99f099	-0.075165935
43	0x3cfe7a21	0.031064095
44	0xbc467fb1	-0.012115405
45	0xbd66ca78	-0.056345433
46	0xbdd229ab	-0.10261854
47	0x3cc17460	0.023615062
48	0xbe0613d8	-0.13093507
49	0x3d955ec6	0.07293467
50	0xbe1229e1	-0.14273788
51	0x3dfb9fa5	0.12286309
52	0xbd0f1b3b	-0.03493808
53	0xbd9bc217	-0.07605379
54	0xbd98cbcd	-0.07460747
55	0xbd54d909	-0.051964793
56	0xbbfd9508	-0.007738713
57	0x3cba63ea	0.02275272
58	0x3e1a5141	0.15070058
59	0xbe1aaa6d	-0.15104075
60	0xbc67f6b7	-0.0141579425
61	0x3e87952c	0.26480997
62	0x3da9837a	0.0827703
63	0xbc7c7203	-0.015408042
64	0x3d0b672f	0.03403395
65	0xbc224d1f	-0.009906082
66	0x3d851632	0.06498374
67	0x3cfb23ee	0.030656781
68	0xbd8942b5	-0.067021765
69	0xbd8fe1cb	-0.070254885
70	0x3c41bbcc	0.011824559
71	0x3dab957e	0.08378123
72	0xbe0b4b7d	-0.13603015
73	0x3d19f2f8	0.03758523
74	0xbd925deb	-0.0714682
75	0xbe0c01c1	-0.13672544
76	0xbdaac555	-0.08338419
77	0xbcb70eef	-0.022345988
78	0xbd4ecf40	-0.050490618
79	0xbe0c5e1d	-0.13707776
80	0xbe2463c7	-0.16053687
81	0xbe07d150	-0.1326344
82	0xbe0a49b1	-0.13504674
83	0xbcb8cbbe	-0.02255809
84	0xbc19c802	-0.0093860645
85	0x3d823618	0.06357974
86	0xbe84bfcd	-0.25927582
87	0xbd93f507	-0.0722447
88	0xbe051189	-0.1299497
89	0xbe1ea873	-0.15493946
90	0x3d946ed0	0.07247698
91	0x3dab3262	0.08359219
92	0xbd4daaaf	-0.050211605
93	0xbdd11283	-0.10208609
94	0xbd6a6abb	-0.057230692
95	0xbda19e91	-0.07891572
96	0xbe1388ba	-0.14407626
97	0xbd17f091	-0.037094656
98	0xbe19fbe5	-0.15037496
99	0xbdb7ac1a	-0.08968373
100	0x3dc7b27a	0.097508386
101	0xbce88855	-0.02838532
102	0xbc964d3a	-0.018347371
103	0xbc4cadf9	-0.01249265
104	0x3d08ef4b	0.033431333
105	0xbe5caad5	-0.21549542
106	0x3d7b8815	0.061409075
107	0xbdbfa74c	-0.09358081
108	0xbc04f631	-0.008115337
109	0xbd0594e6	-0.032612704
110	0xbe83f62d	-0.25773755
111	0xbe1130f8	-0.14178836
112	0xbdcc6449	-0.099800654
113	0x3c1e182d	0.009649319
114	0x3c3dbd3c	0.0115807615
115	0xbe29417b	-0.16528885
116	0xbbc728b3	-0.00607785
117	0xbe05e540	-0.13075733
118	0xbd590fc4	-0.05299355
119	0x3d161c54	0.03664811
120	0xbd0b4645	-0.03400256
121	0x3c8565a0	0.01628381
122	0xbc024638	-0.007951312
123	0x3a63460e	0.0008669802
124	0x3d4c8748	0.0499337
125	0x3ce9154a	0.028452534
126	0x3d36e337	0.044650283
127	0xbd5e4f4a	-0.054274835
128	0x3deaeec7	0.114713244
129	0x3d56af95	0.05241354
130	0x3c91764d	0.017756606
131	0xbdfc4c18	-0.12319201
132	0x3dc391dd	0.095493056
133	0x3d95e14a	0.07318361
134	0xbe14bcb4	-0.1452511
135	0xbda1cba0	-0.079001665
136	0x3c0adf4d	0.008476091
137	0xbcdcad86	-0.026938211
138	0x3d0c8e16	0.03431519
139	0xbd6a4954	-0.057198837
140	0xbd009417	-0.03139123
141	0xbdfa73f9	-0.12229151
142	0xbd6b56d7	-0.057455864
143	0x3d5e4bf7	0.054271664
144	0x3da7df07	0.08196836
145	0xbdac0a8f	-0.084004514
146	0x3d379a4f	0.044824895
147	0xbd2e3987	-0.04253533
148	0xbd192e80	-0.03739786
149	0xbcb97409	-0.022638338
150	0xbca6e89c	-0.020374589
151	0x3cafce66	0.021460723
152	0x3dbdb77e	0.09263514
153	0x3ae47227	0.001742904
154	0x3df0d214	0.11758819
155	0x3d532d76	0.051557027
156	0x3dcebe6f	0.10094916
157	0x3d756097	0.05990657
158	0xbce13f0b	-0.027495882
159	0x3d4b430d	0.04962449
160	0x3d2fd4de	0.042927615
161	0xbc4fd9f8	-0.012686245
162	0xbd970d6a	-0.073756054
163	0xbdc749df	-0.09730887
164	0xbd9f36c4	-0.077741176
165	0xbdcbb9eb	-0.099475704
166	0x3a8142ee	0.0009861866
167	0x3cbade15	0.022810975
168	0xbd01d7f9	-0.03170011
169	0x3d7c5f1e	0.06161415
170	0x3dd48999	0.10377807
171	0xbd5920e9	-0.0530099
172	0x3dd00b0b	0.10158356
173	0xbd9bcea5	-0.07607774
174	0x3c6310e8	0.013859011
175	0x3d69b622	0.05705846
176	0x3e07e253	0.1326993
177	0xbc7c3c28	-0.015395202
178	0x3d9c2196	0.076235935
179	0x3db2c1a2	0.08728339
180	0x3cb93c14	0.022611655
181	0xbde46b70	-0.111533046
182	0x3c15baaf	0.009138747
183	0xbd1b2503	-0.037877094
184	0x3d33fd0b	0.043942492
185	0x3d1027c9	0.035194192
186	0x3d3c5d16	0.04598721
187	0x3d93b574	0.07212344
188	0x3db68860	0.0891273
189	0x3d938bda	0.07204409
190	0xbd96996f	-0.07353484
191	0x3dce0d5a	0.1006114
192	0xbdad3ffc	-0.0845947
193	0x3d1fd038	0.039016932
194	0xbc8e94f8	-0.017405018
195	0xbe117a60	-0.14206839
196	0x3e5eae63	0.21746211
197	0x3d36af31	0.04460067
198	0xbd83d878	-0.064377725
199	0x3df0a81b	0.117508136
200	0x3dd237ef	0.10264575
201	0x3d3c1a2c	0.045923397
202	0x3dae8a2c	0.08522448
203	0x3e17d36e	0.14826748
204	0x3dbd13af	0.0923227
205	0xbd1df6df	-0.038565513
206	0xbdc87bfb	-0.097892724
207	0xbcbe0e38	-0.02320014
208	0xbdb05f27	-0.08611899
209	0x3ce4bcb4	0.027922012
210	0x3d8c8918	0.06862086
211	0xbe00ac0e	-0.12565634
212	0x3dd10a7c	0.10207078
213	0x3c468099	0.012115621
214	0xbbadd3af	-0.0053047757
215	0xbd75ec2a	-0.060039677
216	0x3c1963f4	0.00936221
217	0xbcc85087	-0.02445246
218	0x3e457150	0.19281507
219	0xbda2d37e	-0.07950495
220	0x3df8fa57	0.121571235
221	0x39f1508a	0.00046027108
222	0x3e0d6883	0.138094
223	0x3ded808e	0.115967855
224	0xbd4d89fd	-0.050180424
225	0xbe0ee487	-0.13954364
226	0xbe031679	-0.12801541
227	0x3e0708d8	0.13186967
228	0x3dab245e	0.08356546
229	0xbbca81fe	-0.006180047
230	0x3c25d5b6	0.010121753
231	0x3e076af0	0.13224387
232	0x3dc3d103	0.0956135
233	0xbc31399e	-0.01081696
234	0x3cd2c758	0.02572982
235	0xbdc78ce7	-0.09743672
236	0x3ab9457d	0.0014135089
237	0xbdc44d69	-0.09585077
238	0xbd6c1f77	-0.057647195
239	0xbdb6d607	-0.08927541
240	0x3c942e57	0.018088503
241	0x3cf1c645	0.029513488
242	0xbdc1d002	-0.094635025
243	0x3d8a0659	0.06739492
244	0x3daf6374	0.08563891
245	0x3e008bc1	0.12553312
246	0x3dc788fa	0.09742923
247	0xbe4d35e9	-0.20040096
248	0xbe5c273d	-0.21499343
249	0x3d3bba96	0.04583224
250	0x3b0eff5c	0.0021819687
251	0x3ad31b73	0.0016106203
252	0x3d0bb9f1	0.034112874
253	0x3e601390	0.21882463
254	0xbe24fa97	-0.16111217
255	0x3c231fe0	0.00995633

fc.weight f4 [1, 64]
0	0x3de3d091	0.11123765
1	0x3d09e497	0.033665266
2	0x3e49a61c	0.19692272
3	0xbd5bd177	-0.053666558
4	0xbe40f812	-0.18844631
5	0x3e0dbfef	0.13842748
6	0xbd931da3	-0.07183387
7	0xbe263033	-0.16229324
8	0xbdc09a7e	-0.09404467
9	0xbd9753d9	-0.073890395
10	0x3e641fe5	0.22277792
11	0x3e2d85c8	0.16945565
12	0x3e873b62	0.26412493
13	0x3df5376b	0.11973461
14	0xbdd10291	-0.10205568
15	0x3ccb9609	0.024851816
16	0x3daaf9fe	0.083484635
17	0xbe0e9bba	-0.13926592
18	0xbe14035a	-0.14454404
19	0xbb651b57	-0.0034958923
20	0x3e2724b0	0.16322589
21	0xbe05c509	-0.13063444
22	0x3d8b5a80	0.06804371
23	0x3deda94d	0.11604557
24	0x3cb0df31	0.021590801
25	0xbd5ad07e	-0.05342149
26	0x3e4334a1	0.19063045
27	0x3e2b7118	0.1674236
28	0x3e23c804	0.15994269
29	0xbd9e8033	-0.07739296
30	0xbe873dec	-0.2641443
31	0xbe07c250	-0.13257718
32	0x3dcd7636	0.100323126
33	0x3d9ddb1b	0.07707807
34	0xbc8febf0	-0.017568558
35	0x3eb033fd	0.34414664
36	0xbe8c6261	-0.27418807
37	0xbd28709d	-0.04112302
38	0x3e657ed7	0.22411667
39	0x3dde8d46	0.108667895
40	0xbdcd4928	-0.10023719
41	0xbe1a4d0a	-0.1506845
42	0x3e215eed	0.15758868
43	0x3e08e5a3	0.1336885
44	0x3e144614	0.14479858
45	0xbd8e6c91	-0.06954301
46	0x3c9c975d	0.019115144
47	0x3d286f62	0.041121848
48	0xbcc068d5	-0.023487488
49	0xbd97740b	-0.0739518
50	0x3def6b9e	0.11690448
51	0x3e2aef5c	0.16692871
52	0x3e05e42a	0.13075319
53	0x3e0c9652	0.13729218
54	0xbda2eff0	-0.07955921
55	0x3cf90d91	0.030401977
56	0x3ce9a23a	0.028519738
57	0xbe072ef8	-0.13201511
58	0xbe29585a	-0.1653761
59	0x3dd8fda8	0.10595256
60	0x3e43cda5	0.19121416
61	0xbea0ac8d	-0.31381646
62	0xbdccad06	-0.09993939
63	0x3ca7de20	0.02049166
