api/model_files/youbike_lstm_multistation.pth (torch, 79306 bytes, 6 tensors)

station_embedding.weight f4 [5, 5]
0	0xbf29a345	-0.66264755
1	0xc004d497	-2.0754755
2	0x3f1c77fb	0.61120576
3	0x3e42a1b7	0.19007002
4	0x3fd31698	1.649127
5	0x3f33a9e8	0.7018113
6	0x3e8d8323	0.27639112
7	0x3f47c649	0.78036934
8	0x3e8404fc	0.25785053
9	0xc0131759	-2.2983
10	0x3e972df5	0.2952725
11	0xbf0404c3	-0.51569766
12	0xc01f7d65	-2.4920285
13	0x3f0b76cd	0.5447815
14	0x3e027841	0.12741186
15	0x3f9e9665	1.2389647
16	0x3fb8069a	1.4377015
17	0xbffd914c	-1.9809966
18	0x3fa16623	1.2609295
19	0xbfa60af4	-1.2972093
20	0xbe33ac30	-0.17546153
21	0x3e84ad46	0.25913447
22	0x3e81a520	0.25321293
23	0x3b274b3e	0.0025527026
24	0x3fcf95f2	1.6217635

lstm.weight_ih_l0 f4 [256, 8]
0	0xbdb12998	-0.086505115
1	0xbe1b4525	-0.15163095
2	0xbe0162a4	-0.12635285
3	0xbdf9fc02	-0.1220627
4	0x3d965541	0.0734048
5	0xbd151821	-0.036399964
6	0x3dc08917	0.09401148
7	0xbcf31bb7	-0.029676301
8	0x3e115685	0.14193161
9	0xbdeb1673	-0.11478891
10	0xbbf66b05	-0.007520082
11	0xbdb622a4	-0.08893326
12	0x3d5934c0	0.053028822
13	0xbd70bc76	-0.05877348
14	0x3d9136a2	0.070904985
15	0x3d76fb3e	0.060298197
16	0x3d7dd736	0.06197282
17	0x3dccfc46	0.10009055
18	0xbcd5f3a7	-0.026117159
19	0x3c5a4f31	0.013324545
20	0x3c0b8ab3	0.008516955
21	0x3daf548d	0.08561049
22	0x3dd68deb	0.104762875
23	0x3d45e940	0.048318148
24	0x3e2f44dc	0.17116112
25	0x3d9acd77	0.075587206
26	0xbcceeac8	-0.025258437
27	0x3cfe0f50	0.031013161
28	0x3e026ebe	0.12737557
29	0xbdee7ffd	-0.116455056
30	0xbd2d1e09	-0.042264972
31	0xbd80e633	-0.06293907
32	0xbdd234ec	-0.10264
33	0x3e05b253	0.13056307
34	0xbd327fab	-0.043578785
35	0x3da36488	0.07978159
36	0x3d84f192	0.064913884
37	0xbd8fa386	-0.070136115
38	0xbd9b6045	-0.07586721
39	0xbcff15f5	-0.0311384
40	0x3cff006a	0.031128127
41	0x3db4dd53	0.08831277
42	0xbd3edf8d	-0.046599913
43	0x3dce7a7b	0.10081955
44	0xbe06d03a	-0.1316537
45	0x3d7e5593	0.06209333
46	0x3d8b9974	0.06816378
47	0x3dfb86af	0.12281548
48	0x3d4f3731	0.050589744
49	0xbdcc7abc	-0.09984347
50	0xbd34efd2	-0.044174023
51	0xbd53222b	-0.051546257
52	0x3ba590f0	0.0050526783
53	0x3d66664b	0.056249898
54	0x3da381b0	0.0798372
55	0xbb45e814	-0.0030198144
56	0x3db50c09	0.08840186
57	0xbdac7ce3	-0.08422258
58	0x3d187f21	0.037230615
59	0xbc8285f8	-0.015933022
60	0xbb0aa8b3	-0.0021157681
61	0xbde0a11d	-0.1096823
62	0xbd8ac482	-0.06775762
63	0x3c9f8648	0.01947321
64	0x3d96044a	0.07325037
65	0x3db171e8	0.08664304
66	0x3dbc75c8	0.092021525
67	0xbd532cce	-0.0515564
68	0x3dca93dd	0.09891484
69	0xbd1f7dca	-0.03893832
70	0x3d35efa5	0.044417996
71	0x3d140353	0.036135983
72	0xbcee4c6f	-0.02908918
73	0xbddb261d	-0.10700629
74	0xbce6902a	-0.028144915
75	0x3dee68e9	0.11641104
76	0xbd4f4ed7	-0.050612297
77	0xbe06f2b5	-0.13178523
78	0xbc5c46ca	-0.013444612
79	0x3dcbe367	0.09955483
80	0xbd8752d2	-0.066075936
81	0x3e1fa491	0.15590121
82	0xbb227ec8	-0.0024794806
83	0x3cdf76e8	0.027278379
84	0x3d0955fb	0.033529263
85	0x3d0a8057	0.0338138
86	0x3dc27498	0.09494895
87	0x3b149dea	0.0022677132
88	0xbda41932	-0.08012618
89	0x3daae732	0.08344878
90	0x3d9a3985	0.07530502
91	0x3c0be01d	0.0085373195
92	0x3d36b230	0.044603527
93	0xbdc03621	-0.09385324
94	0x3dd07d87	0.101801924
95	0xbbc734f0	-0.0060793087
96	0x3e08bc4c	0.1335308
97	0x3cfabd16	0.030607741
98	0x3cd47a17	0.025937123
99	0x3b4b8acf	0.0031058078
100	0x3e26a810	0.16275048
101	0xbde78445	-0.11304525
102	0x3e432282	0.19056132
103	0xbd9a3090	-0.07528794
104	0x3dbd113e	0.09231804
105	0x3dd06671	0.10175789
106	0x3c0cb254	0.008587439
107	0x3e070d41	0.1318865
108	0x3de5a50a	0.11213119
109	0x3c998ce4	0.01874394
110	0x3d9c8753	0.076429985
111	0x3d82df97	0.06390303
112	0x3dae5e21	0.085140474
113	0xbdc0f826	-0.094223306
114	0x3d45f9f3	0.048334073
115	0x3d011d07	0.031521823
116	0x3dda90c9	0.10672147
117	0xbd0e5d12	-0.034756728
118	0xbd47b7f1	-0.048759405
119	0xbd766f31	-0.060164634
120	0x3d80772a	0.06272729
121	0x3e222c49	0.15837206
122	0x3e4340a3	0.19067626
123	0x3d7d499d	0.06183778
124	0x3c9a43af	0.018831102
125	0xbd82a7b9	-0.06379647
126	0x3da03e6f	0.07824408
127	0xbe04754f	-0.12935375
128	0xbd3d9a26	-0.046289586
129	0x3bfde45a	0.007748169
130	0x3dff7b1d	0.12474654
131	0xbcad5b92	-0.021161828
132	0x3e12af14	0.143246
133	0xbde0a7ec	-0.109695286
134	0xbd80cec5	-0.06289438
135	0x3d949e41	0.07256747
136	0x3e04aaaf	0.12955736
137	0x3d36f8ca	0.044670857
138	0x3e1c208c	0.1524679
139	0x3c3d0a82	0.01153815
140	0x3d3bc75b	0.045844417
141	0xbbe433b9	-0.0069641736
142	0xbda1cfa9	-0.07900936
143	0x3d820915	0.063493885
144	0x3e560bcf	0.20902942
145	0x3d62fa18	0.05541429
146	0xbe0ce371	-0.13758637
147	0x3d78f575	0.06078096
148	0xbd77441c	-0.06036769
149	0x3a357ea3	0.00069234724
150	0x3e261695	0.16219552
151	0xbc8bdabb	-0.017072072
152	0x3d8e91e7	0.069614224
153	0x3ddc4b11	0.10756505
154	0x3e33aa86	0.17545518
155	0x3de78cce	0.11306153
156	0x3e19a286	0.15003404
157	0x3c4d64e5	0.012536262
158	0xbdbf8274	-0.09351054
159	0xbe0c2870	-0.136873
160	0x3cc0ec6c	0.023550235
161	0xba9e7983	-0.0012090657
162	0xbd246656	-0.040136658
163	0xbd0a130a	-0.033709563
164	0x3c92a774	0.017902113
165	0x3d033fa8	0.03204313
166	0xbdde0418	-0.108406246
167	0xbd98c712	-0.07459845
168	0xbd26b610	-0.040700972
169	0xbd20d237	-0.039262976
170	0x3d4d571a	0.050131895
171	0x3b831432	0.00400021
172	0xbd410465	-0.04712333
173	0x3d56530b	0.05232529
174	0x3caea694	0.021319665
175	0xbd16e1ee	-0.036836557
176	0xbd51ddbf	-0.051236864
177	0x3ca848e4	0.02054257
178	0xbd634ef4	-0.055495217
179	0xbc3300c0	-0.010925472
180	0x3d9d5110	0.07681477
181	0x3df65578	0.120280206
182	0xbdc7a1e1	-0.09747673
183	0xbde09a09	-0.1096688
184	0x3d5fcc0e	0.05463796
185	0xbdbccd86	-0.09218888
186	0xbe2b203f	-0.1671152
187	0x3d80fa76	0.06297772
188	0x3b5be019	0.003355032
189	0xbd51451d	-0.051091302
190	0x3c707653	0.014676648
191	0x3cfbc391	0.030732902
192	0xbdde96f2	-0.10868634
193	0xbd9daf10	-0.07699406
194	0xbb165a51	-0.0022942016
195	0x3d626c5b	0.055279117
196	0x3d7650eb	0.060135763
197	0xbd5aa8c8	-0.05338362
198	0x3d1b2d26	0.037884854
199	0xbdade52d	-0.084909774
200	0x3d1e4af2	0.038645692
201	0xbdef5fde	-0.11688207
202	0x3d140d29	0.036145363
203	0x3d665b60	0.056239486
204	0x3d51512b	0.0511028
205	0xbd18545f	-0.037189838
206	0xbd12544e	-0.03572493
207	0xbb0ca3c5	-0.002145992
208	0x3ccb2308	0.024796978
209	0xbd8a43ad	-0.067511894
210	0xbc81c6d8	-0.015841886
211	0xbdd0bca5	-0.10192231
212	0x3d7e8ef1	0.06214804
213	0x3d81aaa4	0.06331375
214	0xbd902441	-0.07038165
215	0xbdf72ead	-0.120694496
216	0x3d0d79ca	0.034539975
217	0xbc2a65d4	-0.010400254
218	0xbda7b6d8	-0.081891716
219	0x3db251da	0.08707018
220	0x3dcfa236	0.10138361
221	0x3d6b06e8	0.057379633
222	0xbc7f12eb	-0.015568475
223	0xbcd71f16	-0.02625994
224	0xbd4de9d6	-0.05027183
225	0x3d0d5b64	0.034510985
226	0xbe27b913	-0.16379194
227	0xbcf75bee	-0.030195203
228	0xbdcb9e1a	-0.09942265
229	0x3db92bbd	0.090415455
230	0x3d245da0	0.04012835
231	0x3ded67ce	0.11592065
232	0xbc1de6d8	-0.009637557
233	0xbd734289	-0.059389625
234	0x3d82eda6	0.06392984
235	0x3dfd0005	0.12353519
236	0x3e128105	0.1430703
237	0xbe0373f0	-0.12837195
238	0x3c7a717a	0.015285844
239	0x3bc72878	0.0060778223
240	0x3df16f59	0.11788816
241	0xbd9dc95e	-0.07704423
242	0x3de16035	0.11004678
243	0x3d2ac3c4	0.041690603
244	0x3dbd33a8	0.09238368
245	0x3dbee2cb	0.09320601
246	0x3dc8a714	0.097974926
247	0x3d30befd	0.04315089
248	0xbcdbb7d8	-0.026821062
249	0xbd1a890b	-0.03772835
250	0xbd80d770	-0.062910914
251	0xbc33946d	-0.01096068
252	0x3c14b12d	0.009075445
253	0x3db43f57	0.088011436
254	0xbdab68fd	-0.08369634
255	0x3c3cf4e0	0.011532992

lstm.weight_hh_l0 f4 [256, 64]
0	0xbd748201	-0.059694294
1	0xbd83d583	-0.064372085
2	0x3db2bc06	0.08727269
3	0xbdb5ca3b	-0.08876463
4	0x3b4a30e9	0.0030851907
5	0xbdb94bdb	-0.090476714
6	0x3cd6a565	0.026201913
7	0x3dffae9c	0.12484476
8	0x3dbe4a31	0.09291495
9	0x3d5f1972	0.054467626
10	0x3dbc8235	0.092045225
11	0xbe108add	-0.14115472
12	0x3db78071	0.08960045
13	0x3cde55f5	0.027140597
14	0xbd8c44dd	-0.06849072
15	0x3d013c2f	0.031551536
16	0x3d877d3f	0.06615686
17	0xbd4140b4	-0.047180846
18	0xbde80cca	-0.11330564
19	0xbd7aac04	-0.061199203
20	0x3c73fca8	0.014891781
21	0x3d4e098b	0.05030207
22	0x3d5255e3	0.05135144
23	0x3c94c8b0	0.018162102
24	0xbc2cf3e2	-0.010556193
25	0xbd37bf53	-0.044860195
26	0xbb959a67	-0.0045655253
27	0xbda65feb	-0.08123764
28	0xbd7118ff	-0.05886173
29	0xbdc006a2	-0.09376265
30	0xbdfd825f	-0.12378382
31	0x3da4321d	0.08017371
32	0xbd4346bb	-0.047674876
33	0xbd3af840	-0.045646906
34	0xbdbf4be2	-0.093406454
35	0x3da9e956	0.082964584
36	0x3e05a8f7	0.13052736
37	0xbcf62ac2	-0.030049685
38	0x3d8fe5bd	0.07026241
39	0x3d8e7ee1	0.06957794
40	0x3e08d41a	0.1336216
41	0xbcaf5d78	-0.021406874
42	0x3c14c2af	0.009079619
43	0xbd418658	-0.04724726
44	0xbd379e61	-0.044828776
45	0xbdfe7e80	-0.12426472
46	0xbd728aaf	-0.05921429
47	0x3d064a36	0.032785617
48	0xbd95cfe5	-0.07315043
49	0x3db2d44f	0.08731901
50	0x3dc7bcfb	0.09752842
51	0x3de998da	0.11406107
52	0x3d14d9f3	0.036340665
53	0x3cc2f1e6	0.023796987
54	0x3d9801ee	0.07422243
55	0xbcb94a61	-0.022618474
56	0xbbd54d42	-0.006509454
57	0x3d0eb532	0.03484077
58	0xbbaf4491	-0.00534875
59	0x3d96281a	0.073318675
60	0xbdf5956c	-0.119913906
61	0x3d9bdd9f	0.0761063
62	0xbdd389ee	-0.103290424
63	0x3d45ea6c	0.048319265
64	0x3dcae98f	0.09907829
65	0x3ca31298	0.019906327
66	0xbcb6fc01	-0.022336962
67	0xbd5a8d90	-0.05335766
68	0xbde968f6	-0.11396973
69	0x3cd057c6	0.025432479
70	0x3ded3c0a	0.11583717
71	0xbe320360	-0.173841
72	0xbd944911	-0.07240499
73	0xbb03b158	-0.0020094719
74	0xbd5e1e50	-0.054228127
75	0xbdbc703f	-0.09201097
76	0xbd65be65	-0.056089777
77	0x3e11868b	0.1421148
78	0xbd8c069b	-0.068371974
79	0xbe4f793a	-0.20261088
80	0xbcb6ae4a	-0.022299904
81	0x3d8f3325	0.06992177
82	0x3e4df67e	0.2011356
83	0xbd9cdae6	-0.07658939
84	0x3ca5a759	0.0202214
85	0x3e060ef1	0.13091637
86	0xbded6ae7	-0.11592656
87	0x3b9ec661	0.004845426
88	0x3dac4cfc	0.08413121
89	0x3d048ddb	0.032361846
90	0x3d678535	0.05652352
91	0x3da96eb6	0.082730696
92	0x3d4e3e0f	0.050352152
93	0x3d7d66a4	0.061865464
94	0xbdd8c826	-0.1058505
95	0x3d9ab5af	0.07554185
96	0x3da8c24f	0.082401864
97	0x3da1a69f	0.078931086
98	0xbdafa5ac	-0.08576521
99	0xbd80af43	-0.062834285
100	0x3d2a3b82	0.041560657
101	0xbcac1072	-0.021003935
102	0x3d8fbba9	0.07018215
103	0x3d01eab9	0.03171799
104	0xbd7af279	-0.061266396
105	0x3c430174	0.011902202
106	0xbdda3726	-0.1065505
107	0x3d39d66b	0.0453705
108	0x3c3cdfe2	0.011527987
109	0x3e34b4ce	0.17647097
110	0x3d0bd829	0.034141693
111	0xbc990c50	-0.018682629
112	0xbcb53ebf	-0.022124646
113	0xbba15cd8	-0.004924398
114	0xbda24e29	-0.07925064
115	0x3de7496b	0.112933
116	0x3bc289ed	0.005936852
117	0x3e084a8f	0.13309692
118	0x3c322a7c	0.010874387
119	0xbd94f443	-0.07273152
120	0x3e15063c	0.1455316
121	0x3cc9f945	0.024654994
122	0x3d942291	0.072331555
123	0x3d49eb61	0.04929674
124	0x3d90177b	0.070357285
125	0xbda269be	-0.07930325
126	0x3d5615a3	0.052266728
127	0xbc017f44	-0.007903878
128	0x3d3c8c20	0.04603207
129	0x3d823384	0.06357482
130	0xbdd8e1ff	-0.1058998
131	0x3dcdd8c4	0.100511104
132	0x3c85e5fe	0.01634502
133	0x3d720820	0.05908978
134	0x3dc163dd	0.094428755
135	0x3d8a27e1	0.067458875
136	0xbd00e3a5	-0.0314671
137	0xbd59d8c5	-0.053185243
138	0x3c94c49d	0.018160159
139	0xbde63223	-0.112400316
140	0x3c704763	0.014665457
141	0xbc3d0239	-0.011536174
142	0x3cd30d48	0.025763169
143	0xbcd8f9d8	-0.026486322
144	0x3cf4825c	0.029847316
145	0x3e0eba66	0.13938293
146	0x3d5d5a19	0.054041002
147	0xbd78c26c	-0.06073229
148	0xbc9d7d5b	-0.019224813
149	0x3daa0938	0.083025396
150	0xbd09c87a	-0.033638455
151	0x3d7c9192	0.061662264
152	0x3e0118dc	0.1260714
153	0xbb0b0d7f	-0.002121776
154	0x3db454dd	0.08805249
155	0xbb86e2c5	-0.0041163885
156	0xbdf2d379	-0.118567415
157	0xbd8715b3	-0.06595936
158	0x3d924f8d	0.07144079
159	0xbdb6975c	-0.08915588
160	0x3de9b2dc	0.11411068
161	0x3d9458eb	0.07243522
162	0x3dab4776	0.083632395
163	0xbddb1aea	-0.10698493
164	0xbd85e1d3	-0.06537213
165	0xbd57aab9	-0.05265305
166	0xbd12a788	-0.0358043
167	0xbdc54f5f	-0.096342795
168	0x3dd75c32	0.10515632
169	0xbca3a268	-0.019974902
170	0x3c878fcf	0.016548065
171	0x3d241e7c	0.040068135
172	0x3d62bac2	0.055353887
173	0x3d85b865	0.06529311
174	0x3c0fca8f	0.008776321
175	0xbde09c1b	-0.10967275
176	0xbd904bd1	-0.07045711
177	0x3d153ff9	0.036437962
178	0xbdaafc05	-0.0834885
179	0xbe00435c	-0.12525696
180	0x3d0c91e8	0.034318835
181	0x3d991416	0.07474534
182	0xbd03a9ca	-0.032144345
183	0x3be53a54	0.0069954786
184	0xbdb0bbad	-0.08629546
185	0xbdad00e6	-0.08447437
186	0x3c8a80f8	0.0169072
187	0xbd5ccb23	-0.053904664
188	0x3d381adf	0.0449475
189	0x3cfa7ee4	0.030578084
190	0x3d0defb6	0.034652434
191	0x3dba9ec5	0.09112314
192	0x3d05fba6	0.032710694
193	0x3d117a42	0.035516985
194	0xbcdd03eb	-0.026979407
195	0x3dec4900	0.11537361
196	0xbd89c1dd	-0.067264296
197	0xbd320a84	-0.04346706
198	0xbd4ab11b	-0.049485307
199	0xbddb6cfd	-0.10714147
200	0x3b901a39	0.0043976572
201	0xbd8a150d	-0.06742296
202	0x3c5d7882	0.013517501
203	0xbcc60a9a	-0.024174977
204	0xbdc91282	-0.09817983
205	0xbc65f8b8	-0.01403635
206	0xbbe897ba	-0.0070981653
207	0x3a1cd200	0.000598222
208	0x3da2ec73	0.07955255
209	0x3ce21f74	0.027602889
210	0x3debef50	0.115202546
211	0xbde4a75a	-0.11164732
212	0x3b3dd792	0.0028967601
213	0x3da30fd5	0.07962004
214	0xbb59a7d1	-0.0033211599
215	0x3d982342	0.074286
216	0x3e182005	0.14855964
217	0x3dfb1599	0.12259979
218	0x3d736568	0.05942288
219	0xbd184d15	-0.037182886
220	0xbcf6d7f9	-0.03013228
221	0x3d84aa23	0.064777635
222	0x3c86eaf1	0.01646945
223	0xbd0ad094	-0.03389032
224	0x3dc7dcae	0.09758888
225	0xbe11be66	-0.14232787
226	0x3cd8de67	0.026473237
227	0xbe33505c	-0.17511123
228	0xbe01974c	-0.12655371
229	0xbe00c785	-0.1257611
230	0xbd356549	-0.044286046
231	0x3e0530e6	0.13006935
232	0xbc3118a3	-0.0108090965
233	0x3d4da0df	0.050202247
234	0xbe03aede	-0.12859675
235	0xbc3cb92e	-0.01151876
236	0x3b3edde6	0.002912396
237	0x3de24184	0.11047652
238	0x3dddc535	0.1082863
239	0xbcaaed3b	-0.020865073
240	0xbdd1f360	-0.10251498
241	0x3c92319a	0.017845917
242	0x3dcbd122	0.09951998
243	0x3d314d9d	0.04328691
244	0xbe296bc4	-0.16545016
245	0x3dfbd517	0.12296503
246	0x3e03b0fe	0.12860486
247	0x3d3dbad4	0.04632075
248	0x3e1e4c37	0.15458761
249	0x3baaaa21	0.005208269
250	0x3c67afdc	0.014141049
251	0xbdb0376c	-0.08604321
252	0x3dd2cccf	0.102929704
253	0x3ddf9f1c	0.109190196
254	0xbd0d2af0	-0.034464777
255	0xbd93bd99	-0.07213897

lstm.bias_ih_l0 f4 [256]
0	0xbcbbc981	-0.022923233
1	0x3db78d23	0.089624666
2	0xbd20cc60	-0.039257407
3	0xbcd00962	-0.0253951
4	0xbd9eb522	-0.07749392
5	0xbd06e99c	-0.03293763
6	0xbd87d788	-0.06632906
7	0xbc245d21	-0.010031969
8	0x3d928bab	0.07155546
9	0x3d9ec2c5	0.07751993
10	0x3e11dd94	0.14244682
11	0x3cc52cea	0.024069268
12	0xbb63c2a6	-0.003475347
13	0x3e3505df	0.17678021
14	0xb54be280	-7.5952994e-07
15	0x3e0a97e8	0.1353451
16	0x3d5b3997	0.05352172
17	0xbd574687	-0.052557494
18	0xbd4c4fba	-0.04988072
19	0x3dea32c6	0.114354655
20	0x3b5d01e6	0.0033723055
21	0x3d06df0d	0.03292756
22	0xbd135b3b	-0.035975676
23	0xbd4bc8d4	-0.04975207
24	0x3d13c3f4	0.036075547
25	0x3e0f9761	0.1402259
26	0xbc29a16f	-0.01035343
27	0xbd6ab3bb	-0.05730031
28	0xbd8435fb	-0.064556085
29	0xbdd2f824	-0.10301235
30	0x3e3d259e	0.18471381
31	0xbcbc3f31	-0.02297935
32	0xbd5785ba	-0.052617766
33	0xbde5e533	-0.11225357
34	0xbc08a27a	-0.008339519
35	0xbc7ddca8	-0.015494503
36	0xbccad048	-0.02475752
37	0x3ddd39b0	0.10802019
38	0x3e0aea15	0.13565858
39	0xbdc54868	-0.09632951
40	0xbd86cc60	-0.0658195
41	0xbae733d2	-0.0017639345
42	0xbda63bd3	-0.08116879
43	0xbd7397d8	-0.05947098
44	0x3d3e35b8	0.04643795
45	0x3e009506	0.12556848
46	0x3dc1078a	0.09425266
47	0x3e03b414	0.12861663
48	0x3a58bac9	0.0008267579
49	0x3df05e67	0.11736756
50	0x3d141bcb	0.036159318
51	0xbde7266d	-0.11286626
52	0x3d8de003	0.069274925
53	0x3e1d3d7b	0.15355484
54	0x3de79a88	0.11308771
55	0x3ccb2dea	0.024802167
56	0xbd9dd5d2	-0.077067986
57	0xbd90a004	-0.070617706
58	0x3dbb4cc1	0.09145499
59	0x3df2f3fc	0.118629426
60	0x3ca971d1	0.020684155
61	0x3d250aba	0.040293433
62	0xbcad0a5c	-0.021123104
63	0xbd026244	-0.031831995
64	0xbdc5f88f	-0.096665494
65	0x3e15621e	0.1458821
66	0x3d0486c5	0.03235509
67	0x3bbd96ba	0.0057857903
68	0x3ab7d2ad	0.0014024578
69	0x3cced1b2	0.025246475
70	0x3dfb7e62	0.12279965
71	0x3d80e85e	0.062943205
72	0x3d9018ef	0.07036006
73	0x3dec71f4	0.11545172
74	0x3df02666	0.11726074
75	0xbd478201	-0.048707966
76	0x3d1b5893	0.037926268
77	0x3d26d9b0	0.040734947
78	0xbdba37c9	-0.090926714
79	0x3da44a07	0.08021932
80	0x3e04fc5e	0.12986895
81	0xba568c30	-0.0008184342
82	0xbca42a22	-0.020039622
83	0x3b93dfb8	0.0045127533
84	0xbdeabbc2	-0.11461593
85	0xbda7adbc	-0.08187434
86	0xbc13bd62	-0.00901732
87	0xbc89f294	-0.016839303
88	0xbd6a9d2c	-0.057278797
89	0xbd6a54d6	-0.057209812
90	0xbd24b295	-0.04020937
91	0x3dacb16d	0.08432279
92	0xbd2535be	-0.040334456
93	0xbd1123f9	-0.035434697
94	0x39edbcca	0.0004534482
95	0xbdaf3910	-0.08555806
96	0x3ddf06c0	0.10889959
97	0xbd2b7f78	-0.04186961
98	0xbd3ac1fd	-0.045595158
99	0xbd869f20	-0.065733194
100	0x3b1bea23	0.002379068
101	0xbdbf822b	-0.093509994
102	0x3c10c4f7	0.008836023
103	0xbce968df	-0.02849239
104	0xbd9df214	-0.07712188
105	0x3e44a2de	0.19202754
106	0xbd451f3d	-0.048125494
107	0xbdf180bc	-0.11792132
108	0xbc12e251	-0.008965091
109	0xbd72df80	-0.059295177
110	0x3dbab6a0	0.09116864
111	0x3de73d61	0.11291004
112	0xbd0baf44	-0.034102693
113	0x3c80dd76	0.0157306
114	0xbe0c1dc6	-0.13683233
115	0x3d160040	0.036621332
116	0xbd869093	-0.06570544
117	0x3dd70923	0.104997896
118	0x3d98fde1	0.074702986
119	0xb936b416	-0.0001742396
120	0xbd754844	-0.05988337
121	0x3dbf61d8	0.09344834
122	0x3be3fee2	0.0069578746
123	0x3dd9acc9	0.10628659
124	0xbd81fd64	-0.063471586
125	0xbdc72da7	-0.09725504
126	0xbbddc907	-0.006768349
127	0x3d1269d2	0.03574545
128	0xbd1dd5d6	-0.038534008
129	0x3d175560	0.036946654
130	0xbd1a6f68	-0.0377039
131	0x3d0cf04d	0.034408856
132	0x3e126400	0.1429596
133	0x3dacb1d8	0.084323585
134	0xbcf47fa6	-0.029846024
135	0xbdea252f	-0.114328735
136	0xbdf8d4de	-0.12149976
137	0x3de25cca	0.11052854
138	0x3e07c95d	0.13260408
139	0xbaef5274	-0.0018258826
140	0x3d0aaf2b	0.03385846
141	0xbd20fc17	-0.03930291
142	0x3d9b78d7	0.07591408
143	0xbc2f8181	-0.0107120285
144	0x3d50411f	0.050843354
145	0x3d593ff1	0.053039495
146	0xbbcb0276	-0.0061953617
147	0xbcda1daa	-0.026625473
148	0xbdc8ed82	-0.09810926
149	0x3d126e4c	0.03574972
150	0xbd8a6c79	-0.06758971
151	0x3dcb2fba	0.099212125
152	0xbd134bd1	-0.035960976
153	0x3d2a41ae	0.041566543
154	0xbdc7b4e4	-0.09751299
155	0xbccda0ec	-0.025101148
156	0x3b86b95f	0.0041114534
157	0xbd6834b4	-0.056690887
158	0xbdf9638c	-0.1217719
159	0x3d029a83	0.031885635
160	0x3d3edd5b	0.04659782
161	0xbdb1dc47	-0.08684593
162	0xbd9e1c6c	-0.07720265
163	0xbcb512db	-0.022103718
164	0x3d058065	0.03259315
165	0xbda61b28	-0.081106484
166	0x3d94c98b	0.07265004
167	0xbd6e8463	-0.058231723
168	0xbbbf19ff	-0.0058319564
169	0x3d8c6757	0.06855648
170	0xbd083abe	-0.033259146
171	0xbd3c2cec	-0.04594128
172	0x3e111443	0.14167885
173	0x3e0675a1	0.1313081
174	0x3dda922d	0.10672412
175	0x3cee8d1a	0.029120017
176	0xbe045529	-0.12923111
177	0xbdafeb72	-0.085898295
178	0x3cba6a30	0.022755712
179	0x3c8cfa0e	0.01720908
180	0xbd95b62d	-0.07310138
181	0x3c95b9ac	0.018277012
182	0x3c542e51	0.012950496
183	0xbdb47e26	-0.088131234
184	0x3dfb2b7b	0.122641526
185	0x3d944896	0.07240407
186	0xbc5e1560	-0.013554901
187	0x3cf304f7	0.029665453
188	0x3cdff69b	0.02733927
189	0xbd380d12	-0.04493434
190	0xbc99fbd2	-0.018796835
191	0x3d8a01ab	0.067385994
192	0x3c5d3ef6	0.013503781
193	0x3e27a86a	0.16372839
194	0xbca2e273	-0.01988337
195	0xbd446aac	-0.047953293
196	0x3cd018b5	0.025402406
197	0xbd917e5d	-0.0710418
198	0xbbeb8ba4	-0.0071882773
199	0xbd125376	-0.035724126
200	0xbc243622	-0.010022672
201	0x3df9b865	0.121933736
202	0x3d920a1f	0.07130837
203	0xbc84bd8a	-0.01620366
204	0x3ba00780	0.0048837066
205	0x3de3c384	0.11121276
206	0x3d9f1102	0.07766916
207	0x3d496640	0.04916978
208	0xbca631de	-0.02028745
209	0xbd059c27	-0.03261962
210	0xbd6390d0	-0.055558026
211	0xbda62370	-0.08112228
212	0xbbe486d2	-0.0069740796
213	0x3d900158	0.07031506
214	0x3d661d2f	0.056180175
215	0xbd425293	-0.04744203
216	0xbdcd04f3	-0.100107096
217	0x3e143407	0.14472972
218	0x3d0db813	0.034599375
219	0xbd6a1c79	-0.05715606
220	0xbe0964f1	-0.13417412
221	0x3cc4db32	0.024030302
222	0x3d436c63	0.047710788
223	0x3d9187c0	0.071059704
224	0x3e10487a	0.14090148
225	0x3d97f7cc	0.074203104
226	0x3d8aa506	0.06769757
227	0xbc1300d0	-0.008972362
228	0xbdfa4488	-0.122201025
229	0xbbeb84d3	-0.0071874647
230	0x3e128490	0.14308381
231	0xbdc5c5ec	-0.09656891
232	0xbdabc7af	-0.08387696
233	0x3daccdf0	0.08437717
234	0xbda9b7b7	-0.08286994
235	0xbc20704a	-0.009792397
236	0x3c0b24d3	0.008492666
237	0xbd9e8118	-0.077394664
238	0x3e103362	0.14082101
239	0x3dad33cb	0.08457144
240	0x3b23ebc4	0.0025012353
241	0xbc87ffda	-0.016601492
242	0xbd4f91c1	-0.05067611
243	0xbd8fab8c	-0.07015142
244	0x3d679f76	0.05654856
245	0xbd021831	-0.031761352
246	0xbcec120c	-0.0288172
247	0x3d599184	0.05311729
248	0x3e07dd6d	0.13268061
249	0xbd230ec9	-0.039809022
250	0x3d838d2d	0.064234115
251	0x3ddfc3cd	0.10926018
252	0xbde8796e	-0.11351286
253	0x3da777d2	0.08177151
254	0x3d275cf6	0.04086014
255	0xbda0ce81	-0.078518875

lstm.bias_hh_l0 f4 [256]
0	0x3d42315d	0.047410358
1	0xbd501190	-0.050798
2	0x3d7659f3	0.060144376
3	0xbd8d8266	-0.06909637
4	0xbce71505	-0.028208265
5	0x3d8d75f5	0.06907264
6	0x3e023192	0.12714222
7	0x3debd06f	0.11514365
8	0x3c917d71	0.01776001
9	0x3db36224	0.08758953
10	0x3e269c20	0.16270494
11	0x3d85eddd	0.065395094
12	0x3b1d0ae7	0.0023962797
13	0x3e40c493	0.18824987
14	0xbd168051	-0.036743466
15	0x3deafb60	0.11473727
16	0xbd3fa7c1	-0.046790842
17	0x3dcf8fe9	0.101348706
18	0x3d083594	0.03325422
19	0x3d134b7a	0.035960652
20	0x3d4f4e58	0.050611824
21	0xbb9621bb	-0.0045816577
22	0xbdd6133e	-0.10452889
23	0x3c8343f7	0.01602362
24	0xbdaf34f6	-0.08555023
25	0xbce11240	-0.027474523
26	0x3df30828	0.1186679
27	0x3d6b35bb	0.05742429
28	0xbd3ef979	-0.046624634
29	0x3d464fb2	0.048415847
30	0x3d2df37f	0.042468544
31	0x3d91e293	0.07123294
32	0xbd89cc88	-0.06728464
33	0xbd82fb9e	-0.063956484
34	0x3dd7eedf	0.10543608
35	0xbc72e6c8	-0.01482553
36	0x3b85b2a1	0.004080132
37	0xbcfd8be8	-0.030950502
38	0xbcd1cc01	-0.025609972
39	0xbd09d94d	-0.0336545
40	0x3d50aad3	0.05094416
41	0x3c7ac063	0.015304658
42	0xbcea8352	-0.028627072
43	0x3dc1c350	0.09461081
44	0xbd55dc96	-0.05221232
45	0x3ded59c4	0.11589387
46	0x3e366146	0.17810544
47	0x3cf0bf5e	0.029388126
48	0xbd104fcd	-0.035232354
49	0xbd8d3229	-0.06894333
50	0x3dd92170	0.10602081
51	0x3d1c8c21	0.038219575
52	0x3e0ca414	0.13734466
53	0x3dd79f8d	0.10528479
54	0x3e1f782a	0.15573183
55	0xbcd87afc	-0.026425831
56	0xbd5c1fb6	-0.05374118
57	0x3dc87fa8	0.097899735
58	0xbdcb13c7	-0.099158816
59	0xbdef57f0	-0.116866946
60	0xbda1a72a	-0.07893212
61	0xbca2592d	-0.019817913
62	0x3e1e238f	0.15443252
63	0x3d43968f	0.047751006
64	0x3afe7759	0.001941423
65	0xbd5c123e	-0.053728335
66	0x3d2ba7ad	0.041907955
67	0x3abadde2	0.00142568
68	0xbd89a49a	-0.067208484
69	0x3dbc1ba3	0.09184959
70	0x3df6b6a6	0.12046556
71	0x3d7bdde5	0.061490912
72	0x3c5785a5	0.013154422
73	0x3b9df4ce	0.0048204428
74	0x3e0170f5	0.12640746
75	0x3db636e8	0.08897191
76	0x3e1dd1f8	0.15412128
77	0x3d9399b0	0.07207048
78	0xbc39757b	-0.011319513
79	0x3e33c597	0.17555843
80	0x3d872ee4	0.066007406
81	0x3ce2547c	0.027628176
82	0x3dd12862	0.102127805
83	0xbc12708b	-0.008937965
84	0x3ccb0516	0.024782699
85	0xbddc5e78	-0.10760206
86	0xbd80a2d2	-0.062810555
87	0x3dc19893	0.09452929
88	0xbda59220	-0.08084512
89	0xbdc622c6	-0.09674601
90	0x3b841d56	0.0040318174
91	0xbdb85a55	-0.090016045
92	0xbd934605	-0.071910895
93	0x3de71019	0.11282367
94	0xbcd41a8a	-0.025891561
95	0xbdc20d1a	-0.09475155
96	0x3c2ff359	0.010739171
97	0x3d75b9aa	0.059991516
98	0xbdaaa25b	-0.08331748
99	0xbe17a9af	-0.14810823
100	0x3c0e9f2a	0.00870494
101	0x3d2d5c11	0.04232413
102	0x3ce07ac3	0.027402287
103	0xbd68d18b	-0.05684046
104	0x3da79cc8	0.081842005
105	0x3d8de87f	0.06929111
106	0x3d15e9cf	0.03659993
107	0xbdeb50b0	-0.11489999
108	0x3d9b0cc3	0.075707935
109	0x3df5568f	0.119794
110	0x3de2a35b	0.11066314
111	0xbc9aeccb	-0.01891174
112	0x3d639698	0.05556354
113	0x3d663840	0.056205988
114	0xbd38af64	-0.04508914
115	0x3cdf02e6	0.027223062
116	0xbd8d6afb	-0.069051705
117	0x3ccf382a	0.025295336
118	0x3d7d156a	0.061788
119	0x3c6cce70	0.014453515
120	0x3c40e025	0.01177219
121	0x3d4b53b3	0.04964037
122	0x3d913749	0.07090623
123	0x3a50fa04	0.00079718255
124	0xbe1281b1	-0.14307286
125	0xbdf76b27	-0.120809846
126	0x3ba3d04f	0.0049991976
127	0xbdc0aa70	-0.094075084
128	0xbe03d33b	-0.12873547
129	0xbd104eb8	-0.035231322
130	0xbd93c179	-0.07214636
131	0xbd9f084c	-0.077652544
132	0x3c266402	0.01015568
133	0x3db690ee	0.08914362
134	0x3abd1a3c	0.0014427374
135	0xbdd3b703	-0.10337641
136	0xbd4a0221	-0.049318437
137	0xbcfde967	-0.030995084
138	0x3d19466c	0.037420675
139	0xbd932339	-0.071844526
140	0xbcfc212c	-0.030777536
141	0x3d19cc96	0.037548624
142	0xbccdf59e	-0.025141533
143	0x3bece068	0.0072288997
144	0x3dcb34c6	0.09922175
145	0xbdb2f22d	-0.087375976
146	0x3da9ccd7	0.08291023
147	0x3d7bb70c	0.061453864
148	0x3aa515f6	0.0012595046
149	0x3d92f2c0	0.07175207
150	0xbc43556e	-0.0119222235
151	0xbd978276	-0.0739793
152	0x3bbefbbe	0.00582835
153	0x3b5e0792	0.0033879024
154	0xbd895405	-0.067054786
155	0x3d8a0264	0.06738737
156	0x3d30cd45	0.04316451
157	0x3d976b25	0.07393483
158	0x3cb33227	0.0218745
159	0x3df7cdfb	0.120998345
160	0x3e0670c7	0.13128959
161	0xbe106318	-0.14100301
162	0xbb3f5db0	-0.002920013
163	0x3c7cee2b	0.015437643
164	0x3dcc7366	0.09982948
165	0x3dc3d050	0.09561217
166	0x3daee029	0.08538849
167	0x3e0a374c	0.13497657
168	0xbdd22d00	-0.10262489
169	0xbca5b48c	-0.020227693
170	0xbd0354a1	-0.03206313
171	0xbdb8b411	-0.0901872
172	0xbd51f189	-0.051255737
173	0xbd41b92a	-0.047295727
174	0x3c2651e0	0.010151356
175	0xbca478cf	-0.020077137
176	0xbce672a4	-0.028130837
177	0x3db5da34	0.088795096
178	0xbc5c87d2	-0.013460116
179	0xbdad6954	-0.08467355
180	0xbdb0ca2c	-0.08632311
181	0xbdd3b510	-0.10337269
182	0x3dd04f13	0.10171332
183	0x3dd43e0e	0.103633985
184	0xbdb6bdf8	-0.089229524
185	0x3db08c3c	0.086204976
186	0xbd9f0ca7	-0.07766085
187	0xbd62e324	-0.0553924
188	0x3d858235	0.06518976
189	0x3d56c1c2	0.052430876
190	0x3cc21ef1	0.023696395
191	0xbdd4e1fa	-0.10394664
192	0x3d79f3ba	0.06102345
193	0xbbc05538	-0.005869534
194	0x3d9c87e3	0.07643106
195	0x3d545eac	0.0518481
196	0x3d8fb4f1	0.07016934
197	0xbdbebf3f	-0.09313821
198	0x3b82cb38	0.0039915107
199	0x3cbf55f2	0.023356412
200	0x3dae628a	0.085148886
201	0xbd319b79	-0.04336116
202	0x3d57b1b9	0.052659724
203	0x3e2b98fb	0.16757576
204	0x3e15977a	0.14608565
205	0x3d379fb3	0.044830035
206	0xbcd6f6e8	-0.026240781
207	0x3e1fa908	0.15591824
208	0xbbb3b953	-0.005484739
209	0xbdb5b80e	-0.08872996
210	0x3dc29e75	0.095028795
211	0xbdcd1c2a	-0.100151375
212	0x3c4903f2	0.012269007
213	0x3ce8ea87	0.028432144
214	0x3d8bc8cc	0.06825408
215	0xbca83bd8	-0.020536348
216	0xbddd37df	-0.10801672
217	0x3df7cb2a	0.12099297
218	0xbd479107	-0.048722293
219	0xbdd0a367	-0.101874165
220	0x3d2ea765	0.04264011
221	0x3d48cf97	0.049026098
222	0x3e0e4755	0.13894399
223	0xbc009ca2	-0.007849844
224	0x3e15c314	0.14625198
225	0xbd42527e	-0.047441952
226	0xbd88479d	-0.06654284
227	0x3d11d1b0	0.035600364
228	0xbd14253a	-0.036168315
229	0xbd95b6cc	-0.07310256
230	0x3db0c938	0.086321294
231	0x3dbcf78a	0.09226902
232	0x3d371324	0.04469599
233	0x3d14352c	0.03618352
234	0xbc4f9b07	-0.012671239
235	0x3da4cb8d	0.08046637
236	0x3dedc7b6	0.116103575
237	0x3df1ae6a	0.11800845
238	0x3c4efcde	0.01263353
239	0x3dd791b9	0.10525841
240	0xbdb1cfcf	-0.086822145
241	0x3cef3052	0.029197846
242	0xbd38e710	-0.045142233
243	0xbdf4cd78	-0.119532526
244	0x3c8368ab	0.01604112
245	0xbd05b54a	-0.032643594
246	0x3df1b1ae	0.11801468
247	0x3d9d1acf	0.07671129
248	0x3dabc35b	0.083868705
249	0xbdab84cd	-0.08374939
250	0x3dfc7e8a	0.12328823
251	0x3d9458e9	0.07243521
252	0xbe06591b	-0.13119929
253	0x3cabec0c	0.02098658
254	0x3d84f726	0.06492452
255	0x3d1665a4	0.036718026

fc.weight f4 [1, 64]
0	0xbd364d47	-0.04450729
1	0xbd897132	-0.067110434
2	0xbdcf5ecc	-0.10125503
3	0x3df2c7b7	0.11854499
4	0x3c995234	0.018715955
5	0xbd8d072d	-0.06886134
6	0x3de53bde	0.111930594
7	0xbd5649f2	-0.052316613
8	0xbdbe3f9b	-0.092894755
9	0xbe133d6c	-0.143789
10	0xbd13cab7	-0.036081996
11	0xbd56867a	-0.05237434
12	0xbdd58051	-0.10424865
13	0x3df4dfe3	0.119567655
14	0xbd3a01cf	-0.04541188
15	0xbe075107	-0.13214503
16	0x3e064ba8	0.13114798
17	0x3e02dc18	0.12779272
18	0x3d196349	0.0374482
19	0xbde76220	-0.11298013
20	0x393ca3b0	0.00017990055
21	0xbdb3f2f1	-0.08786572
22	0x3d2af0c6	0.041733526
23	0x3e00d002	0.12579349
24	0xbda11e45	-0.078671016
25	0x3c49ebe0	0.012324303
26	0xbe068d75	-0.13139899
27	0x3d258856	0.040413223
28	0x3d20d473	0.039265107
29	0xbdb1e42d	-0.08686099
30	0xbe2f74e1	-0.1713443
31	0x3d46270f	0.048377093
32	0x3dfcc0c2	0.12341453
33	0xbcef96fa	-0.029246796
34	0x3be104e8	0.00686704
35	0x3cd641ec	0.02615448
36	0x3d89625b	0.06708213
37	0x3d29ec8d	0.041485358
38	0x3d769844	0.060203806
39	0x3d8a32c7	0.06747966
40	0x3d21b5df	0.039480086
41	0x3dab34a6	0.08359651
42	0x3d4c7888	0.049919635
43	0x3ddacf3f	0.1068406
44	0x3df7c5dd	0.12098286
45	0x3dd32cb8	0.10311264
46	0x3e25930a	0.16169372
47	0xbe2353cc	-0.15949935
48	0xbd182afc	-0.037150368
49	0x3c03d0d9	0.008045399
50	0xbb9e1c0f	-0.004825122
51	0x3db4cd4a	0.08828218
52	0xbe1ff638	-0.15621269
53	0x3e1ebfb5	0.15502818
54	0x3e03a60c	0.1285631
55	0x3d9cc0d0	0.076539636
56	0x3d4080a8	0.046997696
57	0x3e175701	0.14779283
58	0xbda8eb59	-0.08248014
59	0x3daa763d	0.083233334
60	0xbdafb229	-0.08578903
61	0xbd8b403c	-0.06799361
62	0xbcbd3eae	-0.023101177
63	0x3df7db5a	0.12102385
